workspace/models/seg_camera_128_txk.onnx (onnx, 470827 bytes, 109 tensors)

last_conv14.0.weight f4 [16, 1, 2, 2]
-0.69936794 -0.5629587 -0.4991298 -0.37659243 -0.20570406 0.47926894 -0.38761324 0.3100841
0.46954295 0.49876472 0.42735386 0.43608046 0.9582013 0.3308458 0.9581902 0.30397937
0.53858113 0.6356189 0.5044143 0.56908685 0.54290587 0.22472516 0.7862248 0.47768262
-0.42810562 -0.491824 -0.42474747 -0.48190168 -0.6504027 -0.59731954 -0.5394107 -0.48533252
0.86191404 0.7410233 0.8116625 0.76394635 0.602472 0.9407343 -0.077208765 0.14441189
-0.54290354 -0.24075262 -0.6498284 -0.36273494 -0.6295803 0.30524814 -0.11568239 0.9120371
0.33054015 0.13098308 -0.50835544 -0.6422786 -0.8395474 -0.8457426 -0.81845766 -0.819617
-0.11968275 -0.086914845 0.37192133 0.3859524 0.14713155 -0.5577463 0.2911294 -0.44359547
00000000: c709 33bf 101e 10bf f18d ffbe b9d0 c0be
00000010: 16a4 52be bd62 f53e 3e75 c6be 58c3 9e3e
00000020: ef67 f03e 175e ff3e 20ce da3e f045 df3e
00000030: ae4c 753f 9f64 a93e f44b 753f 2fa3 9b3e
00000040: 74e0 093f ecb7 223f 4c21 013f adaf 113f
00000050: e1fb 0a3f 5a1e 663e 0746 493f d192 f43e
00000060: a930 dbbe 5bd0 fbbe 8078 d9be d1bb f6be
00000070: cb80 26bf efe9 18bf d216 0abf 817d f8be
00000080: 66a6 5c3f b4b3 3d3f 1dc9 4f3f fd91 433f
00000090: 9b3b 1a3f f7d3 703f a11f 9ebd b6e0 133e
000000a0: bafb 0abf db87 76be 275b 26bf 65b8 b9be
000000b0: 2d2c 21bf 7c49 9c3e e4ea ecbd 437b 693f
000000c0: 8f3c a93e 6e20 063e 9523 02bf 5f6c 24bf
000000d0: 94ec 56bf 9682 58bf 7186 51bf 6bd2 51bf
000000e0: 3b1c f5bd 6900 b2bd 796c be3e 8e9b c53e
000000f0: a7a9 163e 76c8 0ebf ea0e 953e f21e e3be

onnx::Conv_713 f4 [16, 3, 3, 3]
1.2786747 2.3916237 1.5680143 2.046864 0.36838475 -1.2620116 0.30164358 -0.1974553
-4.031959 -0.31414753 -0.0035008767 -0.03558016 -0.07227816 0.26196548 -2.409641 0.039836932
-1.2442207 -4.4591846 0.14980449 0.8854904 1.7910109 1.1065425 1.3025616 -0.27364272
2.822761 1.2743797 -1.8739624 -0.2888378 -0.29806453 -0.26828003 0.106719464 0.14539641
0.088934615 0.07560843 0.29986778 0.1502377 0.10403162 -0.004631777 0.10423619 0.40323636
0.51059127 0.39273924 0.3521182 0.59373677 0.33380297 -0.17813838 -0.27556914 -0.19397795
0.026339555 -0.021712778 -0.03650003 0.0771808 -0.021709207 0.066096365 -1.1177211 -4.062741
0.067184895 -0.35781708 -3.3386004 -1.2667737 1.4953977 1.1006845 2.6545815 -0.859699
-3.4766529 1.2195674 -0.249493 -1.1368742 0.23066793 0.6666118 0.5101471 0.91937226
-0.36013108 -0.4095093 0.8891376 0.21568787 0.9585481 1.0719783 -0.1878171 1.5515319
1.0960343 -0.020698646 0.05538934 0.122330256 -0.027067855 0.13064855 0.19465111 -0.039718296
0.10423418 0.323178 0.053246934 -0.08321952 -0.30774465 0.048754014 0.048701532 -0.08677798
0.11045189 0.15460372 0.20343007 0.0071812524 -0.1021043 -0.32940394 0.18229672 0.32770905
0.053552967 0.09222899 0.62798566 0.2423361 -0.041299056 -1.2854153 -0.32608804 -0.29797155
-1.2412817 -0.5878352 -0.34922987 -1.1715212 -0.2023477 -0.16852358 -0.5321838 -0.18387103
-0.4901842 -1.1992723 -0.07874048 -0.3934484 -0.7038565 -0.16185461 -0.091933414 -0.045145515
0.084357336 0.047822263 0.10362688 0.3163447 -0.027840681 0.47517976 0.36847508 1.9991076
6.5367618 0.48345038 -0.08269386 7.6754255 0.9558481 -3.736522 -5.3046265 -7.033431
-1.878403 3.9984274 0.9900694 -1.7750157 6.910658 0.81466836 1.8116344 0.7648988
-5.18387 -4.2383885 -1.4700786 -2.7219458 -1.6114731 2.8826382 -1.6189171 1.3121411
1.7405401 -2.52737 1.9872553 -2.8405993 -4.5018435 3.2420883 -2.6494975 -6.6739583
4.1329746 4.1524363 1.2371408 1.5269369 -2.4872193 -3.1554756 0.9522727 1.2991279
-6.5834403 1.3651054 3.730101 0.7600035 1.6231208 3.4750128 0.09247854 0.0418505
0.7409657 -3.040393 0.31023768 0.7966731 -1.989599 -1.078251 -1.565976 -0.8240217
-1.3151087 -1.696928 -0.0730166 -1.1969036 -1.121126 -1.2611804 -0.22095188 -0.83523464
-0.111179285 -1.5319408 -0.8018184 0.12625328 -0.6416054 -1.4570291 -0.56934804 1.6707985
1.7330538 1.8541594 1.3687989 3.4698818 3.0281134 1.3378105 2.6628652 1.6157995
0.10864476 0.4290741 0.59647286 0.22644748 0.58521247 0.7993231 0.14035763 0.047639135
0.23460528 -0.1958683 -0.21835081 -0.20253469 -0.096406855 -0.010325437 0.051372282 -0.019157395
-0.13890348 -0.13969024 -0.10035637 8.368467e-05 0.028959785 -0.023205554 0.010574059 0.08957093
0.003801843 -0.012164604 -0.08679044 0.06926485 0.20446634 0.20339233 0.17988896 0.44724065
0.30454823 0.18307123 0.20530753 0.011565797 0.19362125 0.32228455 0.19895864 0.01437059
00000000: 9dab a33f 5d10 1940 b1b4 c83f d2ff 0240
00000010: ed9c bc3e 9989 a1bf 0771 9a3e b931 4abe
00000020: cf05 81c0 f2d7 a0be f76e 65bb 80bc 11bd
00000030: 9206 94bd 5720 863e 8f37 1ac0 0d2c 233d
00000040: a042 9fbf a4b1 8ec0 5966 193e 80af 623f
00000050: d83f e53f 2fa3 8d3f 57ba a63f e61a 8cbe
00000060: 1ea8 3440 e01e a33f 00de efbf 8ce2 93be
00000070: ea9b 98be 005c 89be bc8f da3d cce2 143e
00000080: 5a23 b63d 98d8 9a3d 4588 993e e9d7 193e
00000090: 880e d53d 29c6 97bb c979 d53d ff74 ce3e
000000a0: 1cb6 023f 1e15 c93e d648 b43e 22ff 173f
000000b0: 39e8 aa3e e869 36be 6617 8dbe 28a2 46be
000000c0: 0dc6 d73c ffde b1bc 0e81 15bd f810 9e3d
000000d0: 82d7 b1bc 885d 873d 7c11 8fbf f901 82c0
000000e0: 3c98 893d cd33 b7be a1ab 55c0 a425 a2bf
000000f0: 3169 bf3f 3be3 8c3f aae4 2940 3c15 5cbf
00000100: 7b81 5ec0 c91a 9c3f 187b 7fbe 1885 91bf
00000110: 3734 6c3e 12a7 2a3f 0099 023f fb5b 6b3f
00000120: 1a63 b8be 34ab d1be 869e 633f 48dd 5c3e
00000130: 6963 753f 9636 893f 2053 40be 9998 c63f
00000140: da4a 8c3f 3590 a9bc efdf 623d 4988 fa3d
00000150: 68bd ddbc bcc8 053e 9f52 473e a7af 22bd
00000160: bb78 d53d 9677 a53e 7519 5a3d ff6e aabd
00000170: b590 9dbe 4ab2 473d 427b 473d a7b8 b1bd
00000180: 9a34 e23d 7050 1e3e f94f 503e b650 eb3b
00000190: 0f1c d1bd a2a7 a8be feab 3a3e 7bc9 a73e
000001a0: 5b5a 5b3d 8de2 bc3d abc3 203f f426 783e
000001b0: 3329 29bd 7d88 a4bf 03f5 a6be ba8f 98be
000001c0: 52e2 9ebf 5e7c 16bf 42ce b2be 68f4 95bf
000001d0: 3c34 4fbe 7291 2cbe 333d 08bf b048 3cbe
000001e0: 6cf9 fabe c181 99bf b042 a1bd 1272 c9be
000001f0: f12f 34bf 37bd 25be 9647 bcbd 81ea 38bd
00000200: 8ac3 ac3d 47e1 433d 543a d43d eff7 a13e
00000210: 2412 e4bc c34a f33e c4a8 bc3e c2e2 ff3f
00000220: 272d d140 cf86 f73e 665b a9bd 169d f540
00000230: 76b2 743f 2d23 6fc0 80bf a9c0 de11 e1c0
00000240: 826f f0bf 3ce6 7f40 3075 7d3f b733 e3bf
00000250: 1c24 dd40 1b8e 503f a3e3 e73f 68d0 433f
00000260: 43e2 a5c0 e1a0 87c0 892b bcbf 5c34 2ec0
00000270: c044 cebf 257d 3840 ad38 cfbf 3df4 a73f
00000280: 05ca de3f 6ec0 21c0 625e fe3f 61cc 35c0
00000290: 1a0f 90c0 607e 4f40 5e91 29c0 1191 d5c0
000002a0: 5441 8440 c2e0 8440 a15a 9e3f ab72 c33f
000002b0: 9a2e 1fc0 50f3 49c0 25c8 733f d349 a63f
000002c0: 8bab d2c0 c6bb ae3f fab9 6e40 978f 423f
000002d0: 6cc2 cf3f 9c66 5e40 6465 bd3d 6e6b 2b3d
000002e0: eeaf 3d3f cd95 42c0 79d7 9e3e c5f2 4b3f
000002f0: 2eab febf 2104 8abf e771 c8bf 16f3 52bf
00000300: 7b55 a8bf f034 d9bf ba89 95bd 2334 99bf
00000310: 0f81 8fbf 5c6e a1bf 3641 62be f0d1 55bf
00000320: f7b1 e3bd a316 c4bf f843 4dbf 8a48 013e
00000330: 4040 24bf ee7f babf cbc0 11bf badc d53f
00000340: b5d4 dd3f 1855 ed3f cd34 af3f 8b12 5e40
00000350: 9ccc 4140 603d ab3f 626c 2a40 85d2 ce3f
00000360: 2581 de3d 9aaf db3e 72b2 183f d9e1 673e
00000370: 7cd0 153f 70a0 4c3f e9b9 0f3e 4121 433d
00000380: 5e3c 703e b391 48be 5b97 5fbe 4165 4fbe
00000390: f570 c5bd 062c 29bc be6b 523d f8ef 9cbc
000003a0: b73c 0ebe f50a 0fbe a487 cdbd dd7f af38
000003b0: 123d ed3c 9319 bebc d13e 2d3c f770 b73d
000003c0: 5728 793b 0c4e 47bc 30bf b1bd bbda 8d3d
000003d0: a05f 513e 1446 503e d034 383e bafc e43e
000003e0: bfed 9b3e 0677 3b3e 233c 523e 787e 3d3c
000003f0: a644 463e 7b02 a53e d0bb 4b3e a072 6b3c

onnx::Conv_714 f4 [16]
-1.3789624 -1.0902144 0.6996687 -0.937634 2.7834182 -1.0586178 0.13315278 0.025716275
-0.76353294 -1.9683347 -1.2039411 2.8681507 2.9206753 -0.071894914 0.8796704 2.7214723
00000000: d781 b0bf 258c 8bbf 7d1d 333f c808 70bf
00000010: 8623 3240 ca80 87bf 3459 083e f0aa d23c
00000020: e576 43bf 64f2 fbbf be1a 9abf c88f 3740
00000030: 58ec 3a40 a43d 93bd 1432 613f 9a2c 2e40

onnx::Conv_716 f4 [16, 16, 1, 1]
-0.028897874 -0.25370514 -0.2946897 0.27924973 -0.16251843 -0.11374284 -0.06365233 0.26874205
0.25053114 0.45391932 0.07560665 -0.505074 -1.0459808 -0.22275218 -0.15106271 -0.2024293
0.14364815 0.16183476 -0.10026622 0.26018313 -0.17732342 -0.09613051 -0.16325149 0.07772439
0.36369717 0.42573097 0.3009125 -0.84842443 0.091059186 0.07934286 0.34914246 -0.4050322
-0.09344247 0.070056975 0.059532467 -0.17348741 0.40993285 -0.13626903 -0.06285564 -0.25756243
-0.1539989 -0.007092178 -0.18209411 0.16969267 0.05389391 0.21063662 0.16494648 -0.00046198157
-0.30169606 -0.21108949 -0.44875267 0.14504924 0.13132797 -0.07602189 -1.2166166 0.014081039
0.33500406 0.036686957 -0.0469143 0.32664192 0.4257612 -0.7097072 0.17523412 -0.6479133
0.13574034 0.1208112 0.02558947 0.06403078 0.016412526 0.18756732 0.24519826 -0.30827957
0.07394089 0.23822285 0.2510407 -0.046521317 -0.13974822 0.117687926 5.568901e-05 0.07118535
-0.18863411 0.11164317 0.2590349 -0.29226667 0.54711807 -0.41755703 -0.36533692 0.224162
-0.25140497 -0.35770568 -0.14445396 0.1275218 0.19113646 0.101884454 0.05200223 0.47380105
-0.00933465 0.0026132464 0.0042243707 -0.002341913 0.08551555 -0.01790261 -0.029844098 -0.06350097
0.019501936 0.013011109 -0.039675947 0.06518032 0.10825754 0.047559652 0.05300909 0.01663003
-0.028209247 0.018692318 -0.10097382 0.11370913 -0.09490872 -0.041750386 -0.027436351 -0.056139156
0.16106924 0.12723872 -0.008640704 -0.13096797 -0.04030842 -0.0086322175 0.077258505 -0.06995395
-0.04397685 -0.048355896 -0.0074892025 -0.15358433 0.055327088 -0.038223505 0.045669492 -0.17322068
-0.1924927 -0.22549216 -0.16284512 0.12389448 -0.08545011 -0.0016101765 -0.22988735 0.16723287
0.059510194 0.07018122 0.0962321 0.073705874 0.20967145 -0.2136768 0.0206845 -0.15876642
-0.06976638 -0.024742698 -0.17357397 -0.066762246 0.42292807 0.05018894 -0.103671536 0.06563227
-0.028290238 0.011649413 0.027049039 -0.045038376 0.009932811 -0.05930598 0.0007049834 -0.021056809
-0.036391288 -0.016300544 -0.060071364 0.03175824 0.021771412 0.020340484 0.013261946 0.025197336
-0.08405455 -0.28938428 0.15032928 0.1318001 0.12756352 -0.4647993 0.08899871 -0.18849447
0.010252875 0.07484044 -0.22501317 -0.13302891 -0.2566485 0.21506684 -0.22230332 0.15570398
-0.05728112 -0.027183926 0.02253935 -0.006190971 0.055189945 -0.016064396 -0.023596285 -0.013763585
-0.008639575 0.023987295 0.021006824 0.046198428 0.03918689 -0.04731083 0.009569685 0.023739884
-0.14456256 -0.16081978 -0.01854806 0.08948632 0.1955542 -0.16519308 -0.042813793 -0.08205964
0.06267459 -0.002500041 -0.102925755 0.117269985 0.051442537 -0.10467395 -0.22928736 0.101474285
-0.26683706 -0.24770494 0.032899637 -0.19802274 -0.32034343 -0.5817503 -0.18757288 -0.19481294
-0.35163376 -0.6108864 -0.55568093 -0.28843078 0.027461056 -0.20295356 -0.15060766 -0.10066287
-0.3070985 -0.43511343 0.20326768 0.12309058 0.15883379 -0.21696378 -0.20951918 0.5461291
0.12703572 -0.12391532 -0.20483848 0.40748975 -0.38701373 -0.19159405 -1.1559694 0.23173611
00000000: 3cbb ecbc a4e5 81be 91e1 96be d2f9 8e3e
00000010: 3b6b 26be 02f2 e8bd 275c 82bd 8f98 893e
00000020: 9e45 803e 1d68 e83e a9d7 9a3d 884c 01bf
00000030: b3e2 85bf 2619 64be 2fb0 1abe a049 4fbe
00000040: 8018 133e 03b8 253e 6058 cdbd b936 853e
00000050: 4594 35be 13e0 c4bd 662b 27be f72d 9f3d
00000060: 8436 ba3e 69f9 d93e 3411 9a3e 5832 59bf
00000070: 3d7d ba3d 827e a23d cdc2 b23e 6160 cfbe
00000080: c45e bfbd 087a 8f3d 51d8 733d afa6 31be
00000090: b8e2 d13e 1c8a 0bbe 75ba 80bd 39df 83be
000000a0: e3b1 1dbe 8065 e8bb e176 3abe eac3 2d3e
000000b0: dcbf 5c3d 20b1 573e bbe7 283e 1e36 f2b9
000000c0: e877 9abe d827 58be e9c2 e5be ca87 143e
000000d0: d77a 063e 5db1 9bbd 18ba 9bbf 28b4 663c
000000e0: a785 ab3e 1045 163d 3629 40bd 9c3d a73e
000000f0: 5ffd d93e 5faf 35bf 9370 333e a5dd 25bf
00000100: 84ff 0a3e dd6b f73d 02a1 d13c 9222 833d
00000110: 9073 863c a611 403e 4115 7b3e d2d6 9dbe
00000120: 526e 973d b1f0 733e 6888 803e 238d 3ebd
00000130: 281a 0fbe 5e06 f13d 9f93 6938 a0c9 913d
00000140: 4d29 41be 2da5 e43d 39a0 843e faa3 95be
00000150: ee0f 0c3f 09ca d5be 710d bbbe b98a 653e
00000160: 27b8 80be 3325 b7be bdeb 13be 1395 023e
00000170: 47b9 433e cca8 d03d 4a00 553d 0d96 f23e
00000180: 5cf0 18bc 0043 2b3b 976c 8a3b c87a 19bb
00000190: c722 af3d 7fa8 92bc 9c7b f4bc cc0c 82bd
000001a0: 86c2 9f3c 8c2c 553c 3f83 22bd 427d 853d
000001b0: 21b6 dd3d e9cd 423d 0f20 593d b33b 883c
000001c0: 1417 e7bc a220 993c 5dcb cebd 55e0 e83d
000001d0: 815f c2bd 7402 2bbd 33c2 e0bc 2cf2 65bd
000001e0: 56ef 243e de4a 023e bd91 0dbc 781c 06be
000001f0: 711a 25bd 256e 0dbc b539 9e3d 0444 8fbd
00000200: 1221 34bd d510 46bd fc67 f5bb 3645 1dbe
00000210: a89e 623d 4090 1cbd ef0f 3b3d c360 31be
00000220: ce1c 45be 6be7 66be dfc0 26be 64bc fd3d
00000230: 7800 afbd 8f0c d3ba 9767 6bbe 183f 2b3e
00000240: f6c0 733d 2cbb 8f3d 5615 c53d 1bf3 963d
00000250: 1db4 563e 17ce 5abe 8a72 a93c aa93 22be
00000260: ade1 8ebd 33b1 cabc 60bd 31be a5ba 88bd
00000270: 078a d83e eb92 4d3d be51 d4bd 366a 863d
00000280: eec0 e7bc 2edd 3e3c f295 dd3c 297a 38bd
00000290: 3bbd 223c d4ea 72bd a3ce 383a 547f acbc
000002a0: 080f 15bd b888 85bc 640d 76bd ee14 023d
000002b0: f659 b23c 16a1 a63c a248 593c a56a ce3c
000002c0: cb24 acbd 2d2a 94be ebef 193e 9bf6 063e
000002d0: 03a0 023e 2dfa edbe f544 b63d b204 41be
000002e0: adfb 273c f245 993d da69 66be bb38 08be
000002f0: 6f67 83be 7b3a 5c3e 7ba3 63be dd70 1f3e
00000300: 9c9f 6abd d3b0 debc 71a4 b83c a1dd cabb
00000310: da0e 623d 7b99 83bc ff4c c1bc a980 61bc
00000320: 018d 0dbc 0181 c43c 8116 ac3c 903a 3d3d
00000330: 6f82 203d 00c9 41bd 2bca 1c3c 257a c23c
00000340: 3508 14be f1ad 24be 1af2 97bc 9b44 b73d
00000350: 5c3f 483e 6028 29be 845d 2fbd e20e a8bd
00000360: 895b 803d bad7 23bb bdca d2bd 3f2b f03d
00000370: 69b5 523d 4c5f d6bd 4eca 6abe c0d1 cf3d
00000380: de9e 88be 5da6 7dbe c5c1 063d 79c6 4abe
00000390: 0e04 a4be 96ed 14bf 1b13 40be 0b7d 47be
000003a0: 5709 b4be 0d63 1cbf 1b41 0ebf 33ad 93be
000003b0: 02f6 e03c 0fd3 4fbe e538 1abe 5628 cebd
000003c0: 043c 9dbe 30c7 debe 6725 503e ea16 fc3d
000003d0: 53a5 223e c12b 5ebe 328c 56be 1ecf 0b3f
000003e0: a715 023e 51c7 fdbd 2ec1 51be 7fa2 d03e
000003f0: aa26 c6be 3b31 44be cef6 93bf 3b4c 6d3e

onnx::Conv_717 f4 [16]
2.615383 1.6761649 -0.48545626 -0.36174622 0.6882767 -1.5034157 -1.1469785 1.0939714
0.33281207 -0.44881418 -0.92054313 0.86647207 -1.0539327 -1.498704 1.0951706 -0.7004887
00000000: 6f62 2740 928c d63f b98d f8be cd36 b9be
00000010: e732 303f ed6f c0bf 31d0 92bf 4107 8c3f
00000020: 5866 aa3e f9ca e5be b7a8 6bbf 1dd1 5d3f
00000030: 44e7 86bf 88d5 bfbf 8d2e 8c3f 3a53 33bf

onnx::Conv_719 f4 [16, 1, 3, 3]
-0.13802576 -0.22513993 -0.3723966 -0.15025972 0.39718798 0.46756276 -0.28285483 0.43839335
0.62560153 0.018971493 0.0019389354 -0.019263726 -0.052339114 -0.116566256 -0.10264367 -0.068156324
-0.13245137 -0.1836396 0.2513739 -0.37030363 -0.13142793 -0.5126353 0.28088826 0.030936796
-0.04210475 1.2126862 1.1385764 0.09810323 2.244959 0.67970055 -1.6258154 -0.1628727
2.573219 -0.163277 -3.3253615 -0.5227598 -0.17089956 -0.36315066 -0.2964408 -0.43586436
0.29379794 0.19208777 -0.24452962 0.8562103 0.96615386 -0.14003257 -0.13871403 -0.10598754
-0.028257126 0.06269193 0.041918535 -0.15126413 -0.070721194 -0.03566821 -58.19216 20.562572
-48.974 -32.231697 138.3557 -4.9600997 14.387712 43.99293 54.621643 -0.10180131
-0.10626648 -0.24193215 0.06579369 0.4155427 0.28985506 -0.04329738 1.0257529 0.9333244
0.5257464 -0.3426952 -0.69236463 3.466 1.2817204 -1.5950669 0.2919366 0.023059644
-0.8635404 1.3487252 0.930173 0.45822194 0.48628467 -0.23894517 -1.2029436 1.0052346
-1.0814066 -1.8859811 1.3905662 -63.680878 18.671795 -7.378857 52.456787 13.910021
75.6157 34.45179 75.05621 -0.8787879 0.9669786 2.2378402 1.8695338 1.2318377
-2.166193 -0.5717739 -0.8979222 -1.7838069 48.951797 -42.69117 -51.220753 68.20408
-29.010326 -100.47044 83.14234 -100.43261 -151.89148 -0.22044213 19.019323 15.744821
22.161856 -133.06866 -144.17798 -0.20462441 -179.70493 -182.34914 0.3097535 0.74934065
0.024634374 0.29809013 -0.5175417 -0.6450956 0.09209148 -0.70757127 -0.8744885 0.45309386
0.51635706 -2.5258422 1.2695857 2.7405193 -0.72955954 -3.3489234 0.03076785 1.5106643
00000000: a056 0dbe 158b 66be c4aa bebe afdd 19be
00000010: 395c cb3e 6364 ef3e 59d2 90be 1875 e03e
00000020: 6c27 203f 1b6a 9b3c e023 fe3a f6ce 9dbc
00000030: 8a61 56bd 4aba eebd d836 d2bd 8b95 8bbd
00000040: 55a1 07be 050c 3cbe 14b4 803e 7098 bdbe
00000050: 0b95 06be 113c 03bf 96d0 8f3e 2a6f fd3c
00000060: 0876 2cbd 4d39 9b3f dfbc 913f 59ea c83d
00000070: 69ad 0f40 db00 2e3f b81a d0bf 1ac8 26be
00000080: 9faf 2440 1632 27be b9d2 54c0 96d3 05bf
00000090: 4b00 2fbe e2ee b9be 17c7 97be 9d29 dfbe
000000a0: af6c 963e a8b2 443e f965 7abe 9930 5b3f
000000b0: dc55 773f b364 0fbe 0d0b 0ebe ff0f d9bd
000000c0: 7d7b e7bc a064 803d c5b2 2b3d fce4 1abe
000000d0: 46d6 90bd d418 12bd c6c4 68c2 2680 a441
000000e0: 60e5 43c2 42ed 00c2 0f5b 0a43 23b9 9ec0
000000f0: 1134 6641 c3f8 2f42 907c 5a42 357d d0bd
00000100: 3ea2 d9bd 10bd 77be d8be 863d 03c2 d43e
00000110: e267 943e 9858 31bd df4b 833f 59ee 6e3f
00000120: 5197 063f bf75 afbe cf3e 31bf f2d2 5d40
00000130: 6a0f a43f 272b ccbf b778 953e 94e7 bc3c
00000140: fc10 5dbf 07a3 ac3f d11f 6e3f 119c ea3e
00000150: 4efa f83e 0bae 74be 0efa 99bf 87ab 803f
00000160: 886b 8abf d467 f1bf 13fe b13f 38b9 7ec2
00000170: d65f 9541 991f ecc0 c0d3 5142 728f 5e41
00000180: 3d3b 9742 a2ce 0942 c81c 9642 3ef8 60bf
00000190: e98b 773f c638 0f40 e24c ef3f dcac 9d3f
000001a0: e8a2 0ac0 c65f 12bf 3bde 65bf c953 e4bf
000001b0: a4ce 4342 c2c3 2ac2 0de2 4cc2 7d68 8842
000001c0: 2615 e8c1 def0 c8c2 e148 a642 7fdd c8c2
000001d0: 38e4 17c3 95bb 61be 9327 9841 c9ea 7b41
000001e0: 7b4b b141 9411 05c3 902d 10c3 1089 51be
000001f0: 76b4 33c3 6159 36c3 0398 9e3e cad4 3f3f
00000200: 07ce c93c 459f 983e 9d7d 04bf fc24 25bf
00000210: 759a bc3d 6423 35bf 7ade 5fbf ebfb e73e
00000220: fa2f 043f 66a7 21c0 c981 a23f ab64 2f40
00000230: 6ac4 3abf c354 56c0 dc0c fc3c 735d c13f

onnx::Conv_720 f4 [16]
-0.2758661 1.1744645 0.023701549 0.20005299 -0.04655224 1.0058336 -0.48374644 0.12801743
-0.6865767 0.68546975 -0.26705912 -0.0039416477 -0.15832792 1.1643802 0.7829338 0.09786246
00000000: 523e 8dbe da54 963f c029 c23c b1da 4c3e
00000010: 90ad 3ebd 28bf 803f 9dad f7be 0017 033e
00000020: 7ec3 2fbf f27a 2f3f f9bb 88be f028 81bb
00000030: b720 22be 690a 953f 596e 483f 1d6c c83d

onnx::Conv_722 f4 [8, 16, 1, 1]
-0.28762385 -1.0271966 2.2887347 -0.22724368 0.101155855 0.967184 1.3154669 -0.14964938
-1.7832494 1.9939321 0.3592221 -0.07378357 0.43438596 -2.3838193 1.9207976 -1.3222063
0.5969544 -0.20665203 0.43476188 -1.176184 0.03243598 -0.23206061 0.06797355 0.5178441
-0.72752357 0.6667563 -0.060117945 -1.7544265 0.88766116 -0.26905653 -0.6238216 0.098545246
-0.31260973 0.0059595043 -0.21811827 -0.20462354 0.27213886 0.19210137 -0.24151467 -1.4935713
0.44119444 0.109854385 0.11529792 0.5085943 -0.39758635 -0.1795224 -0.0020442575 -0.62664074
0.13275006 0.56312764 -1.323629 -0.85243106 0.010372656 -0.12214117 -0.09396334 -0.001987074
-0.32496008 -0.4788339 -0.20536122 -0.5859402 -0.5648365 0.45890024 -0.6412296 0.7894071
-0.08408758 -0.41306195 -0.7054201 -0.5363701 -0.6660491 0.6468397 0.036149915 0.047879852
-1.278963 0.54173493 0.17582396 -0.48240504 0.007127883 -0.5849709 -0.4679145 -0.014182933
-0.17938909 -0.8041818 0.77594435 1.3159995 -0.088367455 0.20042326 0.6544842 -0.1731652
-0.6274649 0.14614724 0.39773232 1.4263952 0.38166347 -0.81995326 0.594477 -0.30247638
-0.31247747 0.12934624 -0.20494537 -0.3801581 -0.42521605 -0.066568784 -0.13482583 -0.20513505
0.21138456 -0.7627964 -0.10936313 -0.23586799 -0.14352255 -0.013038309 -0.27908197 -0.73241997
-0.9934203 0.38109946 -1.6976997 -0.7726524 0.5793451 -0.28478587 -0.73180974 -0.61502796
0.14378649 -0.29709005 -0.50323117 0.11706397 -0.61122215 2.484206 -0.6116277 -0.016469857
00000000: 6f43 93be 2e7b 83bf a17a 1240 91b2 68be
00000010: cd2a cf3d 5f99 773f 3861 a83f b03d 19be
00000020: 8441 e4bf 2b39 ff3f f6eb b73e d71b 97bd
00000030: d667 de3e 7f90 18c0 b2dc f53f 0e3e a9bf
00000040: 01d2 183f 979c 53be 1c99 de3e 338d 96bf
00000050: 97db 043d 4ca1 6dbe b735 8b3d 6e91 043f
00000060: fc3e 3abf 8ab0 2a3f 3c3e 76bd 0c91 e0bf
00000070: c33d 633f c7c1 89be c6b2 1fbf 17d2 c93d
00000080: 620e a0be f247 c33b 655a 5fbe d588 51be
00000090: c955 8b3e 39b6 443e 9f4f 77be 582d bfbf
000000a0: 3de4 e13e 56fb e03d 5121 ec3d 3c33 023f
000000b0: 7090 cbbe b8d4 37be f3f8 05bb 876b 20bf
000000c0: a2ef 073e 2229 103f ad6c a9bf ec38 5abf
000000d0: 13f2 293c 2625 fabd da6f c0bd 9239 02bb
000000e0: 2b61 a6be b829 f5be 364a 52be 2d00 16bf
000000f0: 2099 10bf f9f4 ea3e a027 24bf 9516 4a3f
00000100: 1c36 acbd db7c d3be 6996 34bf 8d4f 09bf
00000110: 3282 2abf 4997 253f ef11 143d aa1d 443d
00000120: 0fb5 a3bf 24af 0a3f 320b 343e cbfd f6be
00000130: 0491 e93b a7c0 15bf 7d92 efbe 885f 68bc
00000140: c6b1 37be dcde 4dbf 4aa4 463f ac72 a83f
00000150: fff9 b4bd c13b 4d3e 478c 273f 3852 31be
00000160: 8aa1 20bf 9fa7 153e 92a3 cb3e 1e94 b63f
00000170: 6569 c33e 75e8 51bf a52f 183f 2fde 9abe
00000180: 0cfd 9fbe 5773 043e 33dd 51be 15a4 c2be
00000190: ebb5 d9be 3755 88bd c80f 0abe ec0e 52be
000001a0: 3275 583e a046 43bf c7f9 dfbd 6187 71be
000001b0: 93f7 12be a29e 55bc d5e3 8ebe e07f 3bbf
000001c0: cb50 7ebf 781f c33e 394e d9bf 8ccc 45bf
000001d0: f64f 143f 74cf 91be e257 3bbf 7972 1dbf
000001e0: c43c 133e 301c 98be c2d3 00bf 3cbf ef3d
000001f0: 0e79 1cbf 3bfd 1e40 a293 1cbf cbeb 86bc

onnx::Conv_723 f4 [8]
0.104622364 0.6179932 2.5722709 2.2003427 2.1048937 0.076068155 2.3994882 1.5434873
00000000: 4044 d63d cd34 1e3f 16a0 2440 6ad2 0c40
00000010: 94b6 0640 9fc9 9b3d 3791 1940 fe90 c53f

onnx::Conv_725 f4 [16, 8, 1, 1]
0.33325726 0.083578244 -0.049006093 0.1100204 0.7621727 -0.48627356 0.7015925 0.20425592
-0.1752396 -0.33543926 0.53196025 -0.93476653 -1.2007502 -0.07650466 0.05433542 -0.16042861
-0.4056986 -0.14154725 0.09977791 0.37865588 0.34251386 -0.10027551 0.4228219 0.8788829
1.2166458 0.06366891 0.8417347 0.17595121 0.25115755 0.38089108 0.2696065 0.053952742
0.087592915 0.17098022 0.22003695 -0.0031796007 0.82219183 -0.15990631 0.5455329 0.13156943
0.6484753 0.8258033 -0.68136925 0.28338668 0.7713379 0.03428637 -0.22484297 -0.19504261
-0.14858949 -0.18168832 0.22722888 -0.18620725 -0.42227387 0.07896069 0.45133314 0.18108396
-0.12740648 -0.2515649 0.43214947 -0.11624356 -0.06557481 -0.10241359 0.5426752 0.034060016
-0.27276668 0.11047525 -0.31135815 0.36318827 0.47322303 -0.2319717 -0.07283056 -0.0883878
-0.22412448 -0.40640688 0.20948584 -0.0009072274 0.10299128 -0.121487156 0.46628425 0.12163226
0.112074435 0.3610093 0.22246249 0.6445676 0.16661884 -0.12447531 0.15391678 -0.13546817
0.043350846 -0.17908967 0.10312399 -0.05140028 0.012207494 -0.08139588 0.20927201 -0.0016160016
1.5613536 0.32207224 -0.29254806 -0.79841185 -0.13807759 0.2720217 0.27632698 0.18177764
0.54673046 -0.23681824 0.25933382 -0.5730318 -0.60556656 0.6357571 -0.28860202 -0.13120472
0.4444035 -0.6335977 0.33447945 -0.3778429 -0.20808938 0.4950814 0.2311812 0.068745665
1.2416197 -0.18859296 0.23010541 0.003921998 -0.16333829 0.6730028 -0.3276055 -0.16531906
00000000: b2a0 aa3e 122b ab3d 9dba 48bd 6052 e13d
00000010: c01d 433f d9f8 f8be 919b 333f 7728 513e
00000020: 0272 33be b2be abbe 8c2e 083f dc4c 6fbf
00000030: 2fb2 99bf 7aae 9cbd d18e 5e3d 6647 24be
00000040: bab7 cfbe c3f1 10be 5c58 cc3d 2fdf c13e
00000050: fa5d af3e 3f5d cdbd 1d7c d83e 78fe 603f
00000060: 0dbb 9b3f d864 823d ed7b 573f 8e2c 343e
00000070: b997 803e 2804 c33e dd09 8a3e 8dfd 5c3d
00000080: ea63 b33d 7015 2f3e 5e51 613e d960 50bb
00000090: 2a7b 523f 7bbe 23be 0ba8 0b3f 23ba 063e
000000a0: 7a02 263f d867 533f 376e 2ebf 0f18 913e
000000b0: 6776 453f dd6f 0c3d 3c3d 66be 40b9 47be
000000c0: d827 18be 810c 3abe b0ae 683e 1dad 3ebe
000000d0: 4834 d8be 24b6 a13d 2315 e73e 136e 393e
000000e0: d876 02be 1dcd 80be b242 dd3e 1b11 eebd
000000f0: 164c 86bd 37be d1bd c3ec 0a3f 8482 0b3d
00000100: 13a8 8bbe d940 e23d 566a 9fbe d0f3 b93e
00000110: 4a4a f23e fd89 6dbe 3028 95bd aa04 b5bd
00000120: e380 65be 9014 d0be 7583 563e 00d3 6dba
00000130: 18ed d23d 42ce f8bd cfbc ee3e 561a f93d
00000140: 4887 e53d 36d6 b83e 35cd 633e 6202 253f
00000150: 219e 2a3e e9ec febd 5c9c 1d3e 2bb8 0abe
00000160: a890 313d 4863 37be ac32 d33d 1a89 52bd
00000170: f101 483c e2b2 a6bd 674b 563e 04d0 d3ba
00000180: 6fda c73f a7e6 a43e dcc8 95be b864 4cbf
00000190: 3664 0dbe 6e46 8b3e bb7a 8d3e eb23 3a3e
000001a0: 87f6 0b3f 7b80 72be 67c7 843e 36b2 12bf
000001b0: 6906 1bbf fac0 223f a5c3 93be 885a 06be
000001c0: db88 e33e 7533 22bf e440 ab3e a074 c1be
000001d0: 6215 55be 4f7b fd3e c4ba 6c3e 87ca 8c3d
000001e0: 65ed 9e3f 831e 41be c1a0 6b3e 1b84 803b
000001f0: 2742 27be e949 2c3f e8bb a7be 6649 29be

onnx::Conv_726 f4 [16]
-0.9562043 1.1418167 -1.0863656 -1.7513413 -0.36085686 -1.8858576 -0.27916554 0.2130956
-0.0715213 -0.19314949 -1.1275187 -0.4921478 -0.76249725 -0.6842685 -0.18862836 -0.6351928
00000000: cec9 74bf 0d27 923f 070e 8bbf f42b e0bf
00000010: 3bc2 b8be c863 f1bf c9ee 8ebe bc35 5a3e
00000020: c279 92bd fbc8 45be 8852 90bf ccfa fbbe
00000030: 0533 43bf 382c 2fbf cb27 41be ff9b 22bf

onnx::Conv_728 f4 [16, 16, 1, 1]
-0.1362103 -0.7038022 0.79629385 -0.55143875 -0.73707 1.2705287 0.033828113 -1.8575227
1.5140214 0.87155503 0.14726426 0.21265876 0.5000871 -0.66608065 -0.33790347 1.2440239
0.76807773 0.3895468 -0.12971638 -0.95192736 0.2027354 -0.0014118615 -0.34739375 0.54382163
-0.38530147 0.447598 -0.3726844 -0.4097997 0.6469009 1.9565078 -1.0406737 -1.1711447
-0.43032265 -0.83167195 0.66335815 -1.7341557 0.0032033643 0.850375 0.05388174 -0.71347713
0.088674404 -0.6681278 -0.13412243 -0.4284533 -0.0014937932 -1.0657723 0.31060395 -0.61493593
0.4207661 -0.087794155 -0.24884829 -0.32847187 1.1259309 -0.41313693 0.13452475 0.66222394
-0.6785314 0.8995093 -0.2573638 0.25460878 0.27710795 0.3083144 0.44901973 0.22052324
1.8137865 1.7655631 -1.298813 0.24146852 -0.4373403 -1.5766925 -0.13682124 0.82802916
0.27902088 1.4377054 -0.30955312 0.45379093 0.8452714 0.21518835 -1.3214058 -0.30759504
-0.7116137 -1.7735817 1.513615 1.0971098 1.1512228 1.5214504 0.32414186 -0.5611933
1.1445222 0.6304224 0.39469576 1.7025851 -0.196297 -0.36109462 0.40115425 0.55689573
0.9263968 2.3394914 -1.7135704 -1.0163674 0.91458607 -2.093752 0.096834086 1.2048411
0.9426805 0.97907215 -0.076787636 -0.6126411 0.44616356 1.452015 0.8076184 0.074002594
0.4815755 0.24451497 0.27283987 -0.16843112 0.2010189 -0.089170665 -0.27206764 0.2150172
0.23867701 0.31123835 -0.03914767 0.53628486 0.13899656 -0.30649817 -0.44437662 0.7769928
-0.41214734 -0.8087673 0.18615443 0.53768164 -0.10371799 1.2744061 0.24073862 -1.0165043
2.0562453 -0.16458078 0.32483697 -1.6858906 -0.047902085 -0.6099838 0.020257752 0.113280475
0.38572812 0.54114634 -0.15120965 1.9862622 0.5162179 -0.0813413 0.17966597 0.45412904
-0.37576997 -0.0072880504 -0.11994131 0.4052757 0.09862277 0.31715122 -0.12307471 1.0849208
-0.530076 0.15036404 -0.060090054 -0.19441006 -0.58165735 0.0966762 -0.0073802676 -0.30956164
0.11112169 -0.68791026 0.12848438 0.058725663 0.62638515 -0.05574266 0.04985839 -0.22048314
1.4222058 1.6853129 -1.2849712 0.31596145 0.12125503 -0.8242746 -0.49438825 1.4129106
0.562628 0.38274977 -0.37019548 1.1970378 0.27481472 1.5184634 -1.2847594 0.5323354
0.03608664 0.0900865 0.0031612774 -0.28919035 0.012191205 -0.02215046 -0.114603974 0.03888641
0.027816093 0.13976768 -0.016617948 0.14554054 -0.33746493 -0.21755765 0.07607258 0.016224343
-0.26278815 0.13088532 -0.07967516 -0.08595995 -1.1426288 0.16276215 -0.13472441 -0.013852333
-0.10960504 -0.25866538 0.169619 -0.2072368 0.038446385 0.31267536 -0.35477057 -0.03984112
-1.3570346 -1.1918039 0.85601914 -0.40564084 0.6139234 1.6622143 0.1840631 -1.8840077
-0.7691686 -0.22784942 0.18875745 0.7965096 -0.85933286 -0.7733668 0.25110397 -0.4354114
0.3072289 0.014656721 0.038518235 -0.28589097 0.28265858 -0.16403665 -0.0018127689 0.018897695
0.53796875 -0.21210071 0.0144898435 -0.01976318 -0.19679882 -0.54967666 0.04659461 0.14856528
00000000: b67a 0bbe 622c 34bf ead9 4b3f 172b 0dbf
00000010: 9fb0 3cbf afa0 a23f 598f 0a3d 4ec3 edbf
00000020: 74cb c13f 3b1e 5f3f 71cc 163e 38c3 593e
00000030: b505 003f 4384 2abf af01 adbe 2d3c 9f3f
00000040: bea0 443f ae72 c73e 5fd4 04be 83b1 73bf
00000050: de99 4f3e 360e b9ba 98dd b1be e537 0b3f
00000060: 3c46 c5be 912b e53e 7dd0 bebe 44d1 d1be
00000070: 4c9b 253f d96e fa3f cc34 85bf 12e8 95bf
00000080: 4053 dcbe 74e8 54bf d7d1 293f d0f8 ddbf
00000090: 89ef 513b 2db2 593f 19b3 5c3d 70a6 36bf
000000a0: ed9a b53d 6c0a 2bbf 6457 09be 3b5e dbbe
000000b0: 62cb c3ba 3a6b 88bf 7b07 9f3e 716c 1dbf
000000c0: a76e d73e 6ccd b3bd 16d2 7ebe 772d a8be
000000d0: 811e 903f af86 d3be dbc0 093e 8287 293f
000000e0: 3cb4 2dbf 3e46 663f 30c5 83be 155c 823e
000000f0: 18e1 8d3e 63db 9d3e eae5 e53e d8d0 613e
00000100: 282a e83f f9fd e13f 813f a6bf 8643 773e
00000110: 11eb dfbe 0fd1 c9bf de1a 0cbe b8f9 533f
00000120: d3db 8e3e bb06 b83f bf7d 9ebe 4957 e83e
00000130: b563 583f 565a 5c3e d323 a9bf 197d 9dbe
00000140: 512c 36bf ba04 e3bf 23be c13f 186e 8c3f
00000150: 455b 933f e3be c23f ecf5 a53e 5daa 0fbf
00000160: b47f 923f 5d63 213f 9015 ca3e 4fee d93f
00000170: 1502 49be 65e1 b8be 1764 cd3e b890 0e3f
00000180: 5728 6d3f 3aba 1540 4656 dbbf 5418 82bf
00000190: 5022 6a3f 0800 06c0 f350 c63d 3c38 9a3f
000001a0: 8253 713f 79a4 7a3f d642 9dbd 0cd6 1cbf
000001b0: 8d6f e43e a1db b93f 14c0 4e3f ac8e 973d
000001c0: 1091 f63e 2262 7a3e abb1 8b3e 3579 2cbe
000001d0: e6d7 4d3e 1c9f b6bd 734c 8bbe 782d 5c3e
000001e0: bf67 743e a25a 9f3e 4f59 20bd f749 093f
000001f0: 1d55 0e3e 54ed 9cbe 5585 e3be 00e9 463f
00000200: fa04 d3be 600b 4fbf 449f 3e3e 81a5 093f
00000210: 196a d4bd bd1f a33f 2f84 763e d01c 82bf
00000220: 8699 0340 dd87 28be 0851 a63e 43cb d7bf
00000230: fa34 44bd e627 1cbf 96f3 a53c 98ff e73d
00000240: 287e c53e 9188 0a3f b4d6 1abe d73d fe3f
00000250: db26 043f 4496 a6bd 5bfa 373e 9a83 e83e
00000260: ec64 c0be 99d0 eebb caa3 f5bd 4c80 cf3e
00000270: bcfa c93d a561 a23e 980e fcbd afde 8a3f
00000280: 10b3 07bf 08f9 193e fd20 76bd 6e13 47be
00000290: 7fe7 14bf 2cfe c53d 2cd6 f1bb dd7e 9ebe
000002a0: c593 e33d e31a 30bf 6991 033e 528a 703d
000002b0: c75a 203f 6a52 64bd 5038 4c3d 55c6 61be
000002c0: d70a b63f 55b8 d73f f079 a4bf b3c5 a13e
000002d0: 8f54 f83d a903 53bf 7520 fdbe 41da b43f
000002e0: 6308 103f c7f7 c33e 438a bdbe 8938 993f
000002f0: 84b4 8c3e 025d c23f ff72 a4bf 2247 083f
00000300: 96cf 133d 457f b83d 6f2d 4f3b c210 94be
00000310: 9fbd 473c e274 b5bc 7db5 eabd 5b47 1f3d
00000320: 93de e33c 421f 0f3e 5d22 88bc 9408 153e
00000330: 34c8 acbe 6fc7 5ebe f1cb 9b3d eae8 843c
00000340: 2b8c 86be cd06 063e bb2c a3bd c50b b0bd
00000350: a941 92bf 1fab 263e 32f5 09be e5f4 62bc
00000360: 9b78 e0bd ca6f 84be 9ab0 2d3e e235 54be
00000370: f579 1d3d fc16 a03e 7da4 b5be 7130 23bd
00000380: 4fb3 adbf 088d 98bf 1224 5b3f 28b0 cfbe
00000390: 152a 1d3f 70c3 d43f 0a7b 3c3e 2a27 f1bf
000003a0: 3ce8 44bf 5c51 69be a249 413e 0ee8 4b3f
000003b0: 3dfd 5bbf 5efb 45bf b390 803e 3eee debe
000003c0: 1b4d 9d3e be22 703c 4cc5 1d3d 4d60 92be
000003d0: a0b8 903e 39f9 27be 6e9a edba 57cf 9a3c
000003e0: 52b8 093f ee30 59be cf66 6d3c 64e6 a1bc
000003f0: a185 49be 9cb7 0cbf fdd9 3e3d 7f21 183e

onnx::Conv_729 f4 [16]
0.8808439 0.108202934 1.4584849 -0.7185004 -1.3443693 -1.3713901 -2.703203 -1.7429402
1.0889469 -1.5665268 1.0561696 -4.1847544 -0.49955094 2.226461 1.5319798 -0.6302624
00000000: fc7e 613f 8099 dd3d a2af ba3f a4ef 37bf
00000010: 4b14 acbf b689 afbf 4701 2dc0 aa18 dfbf
00000020: 9d62 8b3f f383 c8bf 9130 873f 82e9 85c0
00000030: 24c5 ffbe 567e 0e40 ea17 c43f e058 21bf

onnx::Conv_731 f4 [72, 16, 1, 1]
-0.119232565 0.21205142 0.37152413 0.20609865 -0.13415612 -0.18823163 0.09390254 -0.036243834
-0.13943839 -0.32321233 -0.0543632 -0.11219656 0.1172034 0.19356604 0.098168135 -0.09971693
-0.06390115 0.1197745 -0.20623791 0.19581245 0.015560194 -0.04382448 0.034528296 -0.014281305
-0.1620301 0.0002864007 -0.1726363 0.058427848 0.04177398 0.07479354 -0.11736048 -0.17721356
0.013757492 -0.12540695 0.03942894 -0.1997057 -0.32345352 0.031996995 -0.23628421 -0.01801033
-0.05570719 -0.094268195 0.075128034 -0.22675735 -0.0070397253 0.09409007 0.11763022 0.066428274
-0.07980517 -0.2081483 0.09837454 0.027864868 -0.18419515 -0.09157107 -0.35595492 -0.35351485
0.007135768 -0.10702812 -0.12297196 -0.28084317 0.024314929 -0.031896383 0.43117842 -0.09747879
0.0029628156 0.15640797 0.32175973 0.04458801 0.018014299 -0.20958622 0.12090062 -0.002517505
-0.09093591 -0.40742362 0.010051928 -0.037680347 0.22469734 0.018043881 0.035310507 0.13516195
-0.68642265 0.6938833 0.11758703 -0.019919494 -0.33480293 -0.11816177 0.15453129 -0.4550921
0.15964928 0.036313478 0.056513652 0.027549358 -0.5112194 0.26844254 0.07122874 -0.3288935
0.103862286 -0.052242618 0.031434312 -0.09795374 -0.04175841 -0.016139017 -0.06664683 -0.0007411224
0.13156685 -0.017936558 0.06965998 -0.034583453 0.033490553 0.04124897 0.046732478 0.07575196
0.16771935 0.17531534 0.0137089845 -0.042710796 0.014524639 0.729904 -0.17527626 0.32730272
0.18811978 0.28077516 -0.23365672 0.41493216 -0.042280693 -0.3915461 0.07734458 0.06892836
-0.099675 -0.026775805 -0.060734518 0.06234653 0.03731997 -0.021486534 0.04521442 0.025638063
-0.17722772 0.03550761 -0.073604144 0.031550646 0.121223144 -0.017172998 -0.024466472 -0.05673079
-0.020839743 0.21969758 0.32082424 0.17055023 -0.08961851 -0.1265541 0.16615501 -0.013772305
-0.065689035 -0.6159095 -0.10251893 0.001989519 0.45251995 0.07155026 0.036226816 0.035928138
0.0068156514 -0.006480398 -0.037656903 -0.011055024 0.06354874 0.055174254 0.078763045 0.040417146
0.010274693 -0.0404152 -0.066232674 0.053917885 0.016949143 -0.051014617 -0.05267003 0.07754124
-0.040112898 0.0046040313 -0.09056914 0.024222389 0.09562356 -0.028561594 0.15532169 -0.010389036
0.03306 -0.014554579 -0.035939563 0.04492816 0.039376207 -0.049751196 -0.12540448 0.06854066
0.17175151 0.19656743 -0.07843232 0.19187614 0.5878851 -0.308013 0.17935225 0.13118856
-0.07665075 -0.01151674 -0.09618205 0.08655288 0.040602177 -0.16061628 0.13090664 0.10133966
-0.13169552 -0.113609165 0.07825545 -0.118672386 -0.19175212 0.017608186 -0.23026267 -0.08418373
-0.01757762 -0.10765041 -0.027267385 -0.11035619 0.073648594 0.06733147 0.22673528 -0.01181069
-0.15801361 0.0745386 -0.047758754 0.071894765 0.01796675 -0.09023111 0.058086596 -0.008391155
-0.31442443 0.13077466 -0.017497482 -0.056922816 -0.014239067 -0.13356042 -0.013568985 0.046184648
0.12878327 -0.17849799 0.04272589 0.048937995 -0.3074872 0.19007754 -0.17004615 -0.05877047
0.06116958 -0.0016791162 0.031051902 -0.117672116 0.13437717 -0.12313685 0.19853012 0.039314386
00000000: 3430 f4bd 0224 593e 6938 be3e 860b 533e
00000010: 3960 09be cbbf 40be fa4f c03d 6a74 14bd
00000020: f0c8 0ebe 167c a5be f2ab 5ebd 4fc7 e5bd
00000030: 5608 f03d 2d36 463e 600c c93d 6438 ccbd
00000040: 9bde 82bd 554c f53d 0830 53be 0f83 483e
00000050: 2ff0 7e3c 4c81 33bd 8b6d 0d3d 22fc 69bc
00000060: 38eb 25be 0d28 9639 92c7 30be 0a52 6f3d
00000070: 311b 2b3d 5b2d 993d b15a f0bd 7977 35be
00000080: 1b67 613c ae6a 00be 3d80 213d a77f 4cbe
00000090: b39b a5be 480f 033d 7df4 71be 668a 93bc
000000a0: 392d 64bd af0f c1bd badc 993d 1433 68be
000000b0: 7fad e6bb 4bb2 c03d 1de8 f03d 8c0b 883d
000000c0: e570 a3bd d424 55be 9778 c93d dd44 e43c
000000d0: a79d 3cbe 9d89 bbbd b93f b6be e6ff b4be
000000e0: 29d3 e93b 8f31 dbbd b9d8 fbbd adca 8fbe
000000f0: 1a30 c73c c8a5 02bd 6bc3 dc3e f6a2 c7bd
00000100: cc2b 423b 6929 203e b1bd a43e eba1 363d
00000110: b992 933c c59d 56be bf9a f73d bafc 24bb
00000120: 9b3c babd d499 d0be d8b0 243c b556 1abd
00000130: 0f17 663e c3d0 933c c0a1 103d e567 0a3e
00000140: 65b9 2fbf 56a2 313f 78d1 f03d 352e a3bc
00000150: 4a6b abbe ccfe f1bd 733d 1e3e d501 e9be
00000160: 1a7b 233e 71bd 143d dc7a 673d 31af e13c
00000170: 46df 02bf 4d71 893e 60e0 913d bb64 a8be
00000180: c0b5 d43d 5bfc 55bd 44c1 003d f89b c8bd
00000190: de0a 2bbd f935 84bc 227e 88bd e247 42ba
000001a0: 76b9 063e b0ef 92bc e4a9 8e3d 61a7 0dbd
000001b0: 642d 093d aef4 283d 8e6a 3f3d d823 9b3d
000001c0: 9fbe 2b3e dd85 333e a69b 603c 84f1 2ebd
000001d0: c0f8 6d3c fdda 3a3f 9f7b 33be 3994 a73e
000001e0: 79a2 403e c3c1 8f3e b543 6fbe fd71 d43e
000001f0: 852e 2dbd bb78 c8be d666 9e3d 502a 8d3d
00000200: 6822 ccbd ef58 dbbc c2c4 78bd 135f 7f3d
00000210: d3dc 183d 8704 b0bc c132 393d ea06 d23c
00000220: 2f7b 35be 6d70 113d c5bd 96bd 403b 013d
00000230: d743 f83d 63ae 8cbc e96d c8bc 8b5e 68bd
00000240: 1cb8 aabc 67f8 603e 1343 a43e b8a4 2e3e
00000250: e989 b7bd 6697 01be 8a24 2a3e 3ca5 61bc
00000260: f987 86bd 3fac 1dbf 72f5 d1bd 9762 023b
00000270: b2b0 e73e f188 923d 9262 143d 6229 133d
00000280: d455 df3b 8559 d4bb 203e 1abd 2220 35bc
00000290: d825 823d 66fe 613d 854e a13d 738c 253d
000002a0: 3057 283c 698a 25bd ffa4 87bd 00d9 5c3d
000002b0: eed8 8a3c b4f4 50bd 88bc 57bd f1cd 9e3d
000002c0: 6c4d 24bd 6add 963b 507c b9bd 086e c63c
000002d0: 49d6 c33d 01fa e9bc a60c 1f3e c636 2abc
000002e0: ec69 073d 5476 6ebc 5d35 13bd 9706 383d
000002f0: f248 213d e9c7 4bbd 086a 00be 0c5f 8c3d
00000300: a1df 2f3e f948 493e 20a1 a0bd 2e7b 443e
00000310: a37f 163f e1b3 9dbe 1ea8 373e 4b56 063e
00000320: 12fb 9cbd b5b0 3cbc 18fb c4bd a342 b13d
00000330: 784e 263d 9878 24be 640c 063e 2b8b cf3d
00000340: 31db 06be ecab e8bd 6544 a03d 820a f3bd
00000350: ab5a 44be 0b3f 903c fac9 6bbe 8568 acbd
00000360: f1fe 8fbc d177 dcbd da5f dfbc 6d02 e2bd
00000370: 13d5 963d 15e5 893d 4b2d 683e a081 41bc
00000380: 52ce 21be b2a7 983d af9e 43bd 903d 933d
00000390: 012f 933c 17cb b8bd 36ec 6d3d 0e7b 09bc
000003a0: 3dfc a0be cbe9 053e e156 8fbc e627 69bd
000003b0: fa4a 69bc 10c4 08be 7350 5ebc 1d2c 3d3d
000003c0: c3df 033e 2dc8 36be 5801 2f3d 3573 483d
000003d0: f66e 9dbe b0a3 423e 9420 2ebe 4eb9 70bd
000003e0: f48c 7a3d ca15 dcba 8f60 fe3c 14fe f0bd
000003f0: 2b9a 093e 2c2f fcbd 7b4b 4b3e 1f08 213d

onnx::Conv_732 f4 [72]
-0.6836299 0.07136527 -0.28875285 -0.30259863 -0.57971346 -2.160604 0.55225086 2.0663898
0.69271487 -0.5260035 1.1752746 0.7027281 0.3503784 -0.28433076 0.44550464 0.46386948
0.0032075234 0.028013736 -0.057285473 -0.9571116 1.3089077 0.5338606 -0.15498441 0.03909917
1.1917069 0.06838679 1.1540349 0.37750295 1.1953855 0.30325723 -1.1755394 1.2651219
-0.15865508 -0.46264756 0.0337855 -0.77769876 0.26895708 -0.030123033 1.0758357 -1.9163234
-0.32742858 2.2489655 -0.9474217 0.5658173 0.18224797 0.768854 -0.69687885 -0.6947201
0.35500652 0.7499335 -1.2267051 0.019024268 0.42303666 -1.5905186 1.9365373 0.7346599
1.7160879 0.38571525 1.1356659 -0.5377235 2.0802042 -0.38565063 1.0610707 -0.79105306
1.2113664 -0.007391691 0.28497034 -0.013791598 0.16395745 0.5704442 0.38158405 1.4617286
00000000: 5e02 2fbf f427 923d 6ad7 93be 35ee 9abe
00000010: 1a68 14bf 5647 0ac0 5060 0d3f bb3f 0440
00000020: c355 313f 2aa8 06bf 666f 963f fde5 333f
00000030: cc64 b33e cd93 91be 2f19 e43e 4d80 ed3e
00000040: 5035 523b 107d e53c 2ca4 6abd 4405 75bf
00000050: 4a8a a73f 17ab 083f 3cb4 1ebe 7426 203d
00000060: da89 983f 600e 8c3d 6ab7 933f 1148 c13e
00000070: 6402 993f 8844 9b3e 1378 96bf 84ef a13f
00000080: 7a76 22be 24e0 ecbe aa62 0a3d 4417 47bf
00000090: beb4 893e 94c4 f6bc fcb4 893f 164a f5bf
000000a0: b8a4 a7be 0def 0f40 3b8a 72bf 67d9 103f
000000b0: 369f 3a3e 9ed3 443f a766 32bf 2dd9 31bf
000000c0: 6ac3 b53e a4fb 3f3f ac04 9dbf c8d8 9b3c
000000d0: 4398 d83e 1d96 cbbf 74e0 f73f ac12 3c3f
000000e0: c5a8 db3f 787c c53e 805d 913f 3fa8 09bf
000000f0: 1122 0540 0074 c5be 2ad1 873f 7482 4abf
00000100: 0e0e 9b3f 0036 f2bb a2e7 913e 28f6 61bc
00000110: 76e4 273e a208 123f fc5e c33e ec19 bb3f

onnx::Conv_734 f4 [72, 1, 3, 3]
0.31017742 0.9840939 0.07569989 1.1752263 1.0329279 -0.38895968 -0.5579961 -4.0464926
-1.4051294 0.078404725 0.43811464 0.3091912 -0.11519385 -0.38238963 -0.44352543 0.50036085
-0.7391084 -1.2675475 -1.431213 -2.1146784 3.8635495 0.5794198 4.0288396 -4.3267865
1.1159776 -1.6510161 -0.017857898 -0.31090346 -0.57200277 -0.6375092 0.82385653 1.1049674
0.8397473 -0.5065252 -0.4043157 -0.3135576 0.036151703 -0.4435558 0.20197546 -0.3928459
11.427692 -10.904183 0.048144262 -10.931811 10.989724 -0.27918273 -0.106125 -0.4321221
0.08323912 0.9349058 0.06274267 -0.47987628 0.2080904 0.20029049 -1.8139704 0.49862662
-0.07897579 -1.0220835 1.4648198 0.56649506 -0.8021182 0.7699151 0.2280463 -0.035989393
-0.4386996 -0.18867232 -0.25266817 -0.42497456 -0.33975983 -0.0066254726 0.024346951 0.035520215
0.2891224 0.050547287 0.22679906 -1.109067 -1.6332364 -0.10233397 -1.1523378 -1.550274
0.6051611 -0.16251385 -2.1067903 2.232573 -1.1781746 2.377428 -1.1598977 2.631395
4.458103 -8.153206 -0.6183721 1.4116787 -0.8987459 3.2006953 -0.5637387 -1.3373245
1.5554422 -3.015454 0.8956453 -1.70223 -0.47439924 -0.11310065 -0.70718175 1.6345959
1.0332543 -0.100662865 1.62404 -1.3234425 0.81063765 0.552226 0.124233164 0.23606932
-0.14219913 -0.14479557 0.06529025 0.08032351 -0.007853889 0.13898171 -4.1320195 3.4320848
-5.1668324 2.2711694 3.446959 2.7426488 2.5445836 -5.6613894 0.108638495 1.1095682
0.9355713 -0.44100723 -0.72115993 1.6041739 -0.73687524 -2.9602592 0.27190635 0.64511687
0.6720791 -0.28529269 0.33198297 1.1125189 0.38643378 -0.022557091 -0.02829138 0.2772183
0.5242113 0.64117473 -1.0316769 -0.7348252 1.1878068 0.42375195 -0.72151726 -1.158318
0.8498112 -0.0143532995 0.008000645 0.1315365 0.16861129 0.6136899 0.17384732 -0.05557862
0.31347296 0.3071171 -0.39158595 0.20579098 0.3523604 -0.16264765 0.3757096 0.82442045
-0.24380414 0.11557602 0.49775457 0.526445 -1.2990826 -0.052042738 10.10178 -12.864237
1.4297059 -11.001969 14.314809 -1.1314064 0.0497951 0.2744313 0.42647058 0.67482895
0.6349914 0.22171295 -1.0684274 -1.0215306 -0.864348 -0.06717392 -0.18861939 -0.011926579
0.68577355 -3.351411 2.4449098 -0.48360148 -0.09746941 0.71725523 -0.48739576 -0.65513736
-0.6725671 0.40229523 -0.21173312 -0.19733438 0.43021655 0.42669463 -0.8273451 -0.018322358
0.6842627 0.5920555 0.3482891 -0.5879708 -0.47442734 0.3342567 -0.6161499 -0.74166244
-0.5366026 -0.4801234 0.6311838 -0.59092635 1.0358733 0.017546864 0.34550506 0.5200039
-1.2874137 0.44887453 -0.6004364 -0.7434509 0.9948643 0.076172285 -1.7698592 0.82879686
0.8213877 -0.83875674 0.257361 -0.5628404 -0.8293739 0.6393034 0.12932022 -0.93744886
0.29016912 0.7829766 0.38435504 -1.9388554 0.96562546 0.094038464 0.5690618 1.1540613
-0.7892879 1.14676 -1.8431184 0.42624322 0.32536563 0.7708285 0.288097 -0.31702533
00000000: 93cf 9e3e 94ed 7b3f 8b08 9b3d d16d 963f
00000010: fb36 843f b925 c7be d5d8 0ebf de7c 81c0
00000020: 48db b3bf a892 a03d 9050 e03e 4f4e 9e3e
00000030: c1ea ebbd 93c8 c3be c415 e3be a617 003f
00000040: 3536 3dbf ff3e a2bf fd31 b7bf e456 07c0
00000050: 6544 7740 db54 143f 41ec 8040 0975 8ac0
00000060: 5bd8 8e3f 7f54 d3bf ba4a 92bc bd2e 9fbe
00000070: c66e 12bf ce33 23bf 43e8 523f 926f 8d3f
00000080: aef9 563f a3ab 01bf 7802 cfbe 9f8a a0be
00000090: cf13 143d bf19 e3be a8d2 4e3e 1923 c9be
000000a0: d4d7 3641 8977 2ec1 eb32 453d b3e8 2ec1
000000b0: e9d5 2f41 0af1 8ebe 1058 d9bd 1c3f ddbe
000000c0: 4679 aa3d fd55 6f3f 3b7f 803d 58b2 f5be
000000d0: a615 553e f318 4d3e 2f30 e8bf fd4b ff3e
000000e0: 0fbe a1bd a2d3 82bf 377f bb3f d205 113f
000000f0: 9e57 4dbf 2819 453f f884 693e 9d69 13bd
00000100: 3c9d e0be 5133 41be b95d 81be 4496 d9be
00000110: 00f5 adbe 7e1a d9bb 4273 c73c a57d 113d
00000120: da07 943e ac0a 4f3d 033e 683e e8f5 8dbf
00000130: e40d d1bf 7994 d1bd ce7f 93bf 616f c6bf
00000140: d6eb 1a3f 086a 26be a7d5 06c0 7ae2 0e40
00000150: 6dce 96bf c827 1840 8777 94bf c768 2840
00000160: c8a8 8e40 8873 02c1 a24d 1ebf e3b1 b43f
00000170: 3614 66bf 31d8 4c40 2e51 10bf 732d abbf
00000180: bb18 c73f 33fd 40c0 0349 653f ace2 d9bf
00000190: 75e4 f2be 50a1 e7bd dd09 35bf 703a d13f
000001a0: ad41 843f 5528 cebd 8be0 cf3f 9066 a9bf
000001b0: f385 4f3f af5e 0d3f f56d fe3d 28bc 713e
000001c0: a69c 11be 4a45 14be e5b6 853d a780 a43d
000001d0: 99ad 00bc 3951 0e3e 8139 84c0 47a7 5b40
000001e0: b156 a5c0 d75a 1140 fa9a 5c40 8f87 2f40
000001f0: 75da 2240 1a2a b5c0 dc7d de3d 5506 8e3f
00000200: 9a81 6f3f b3cb e1be f09d 38bf 9255 cd3f
00000210: dba3 3cbf e374 3dc0 4f37 8b3e 6126 253f
00000220: 600d 2c3f e211 92be acf9 a93e 0567 8e3f
00000230: a6da c53e a6c9 b8bc 53c3 e7bc 8fef 8d3e
00000240: b632 063f 0724 243f fd0d 84bf 811d 3cbf
00000250: 0e0a 983f 04f6 d83e 5bb5 38bf c443 94bf
00000260: 3a8d 593f 1a2a 6bbc 2315 033c 81b1 063e
00000270: 70a8 2c3e c81a 1d3f 0805 323e 68a6 63bd
00000280: 877f a03e 743e 9d3e f47d c8be dfba 523e
00000290: 9568 b43e 1b8d 26be 025d c03e 380d 533f
000002a0: cba7 79be 1fb3 ec3d b0d9 fe3e 19c5 063f
000002b0: 5748 a6bf c42a 55bd e4a0 2141 ead3 4dc1
000002c0: 9a00 b73f 1108 30c1 7509 6541 edd1 90bf
000002d0: f2f5 4b3d 4282 8c3e 5a5a da3e 97c1 2c3f
000002e0: cc8e 223f b808 633e 3bc2 88bf 84c1 82bf
000002f0: e945 5dbf 7b92 89bd 7125 41be b367 43bc
00000300: db8e 2f3f 857d 56c0 6779 1c40 9d9a f7be
00000310: 0b9e c7bd 0a9e 373f f08b f9be 15b7 27bf
00000320: 5c2d 2cbf a4f9 cd3e 91d0 58be 0612 4abe
00000330: 5845 dc3e b877 da3e e3cc 53bf c518 96bc
00000340: d72b 2f3f f390 173f f352 b23e 4185 16bf
00000350: 24e8 f2be b223 ab3e 00bc 1dbf 97dd 3dbf
00000360: ca5e 09bf bcd2 f5be 4395 213f f346 17bf
00000370: 7f97 843f 71be 8f3c 0ae6 b03e fa1e 053f
00000380: f9c9 a4bf e2d2 e53e 33b6 19bf cc52 3ebf
00000390: 6daf 7e3f 3700 9c3d bf8a e2bf 082c 543f
000003a0: 7746 523f c3b8 56bf d2c4 833e 4f16 10bf
000003b0: d951 54bf 63a9 233f 856c 043e a6fc 6fbf
000003c0: 0c91 943e 2871 483f 2fca c43e 6a2c f8bf
000003d0: 3b33 773f 3d97 c03d 09ae 113f 48b8 933f
000003e0: c60e 4abf 08c9 923f 4eeb ebbf 8d3c da3e
000003f0: 5396 a63e 0455 453f 7381 933e 2551 a2be

onnx::Conv_735 f4 [72]
1.0810695 1.4548016 -0.023407504 0.016119212 -0.004236927 -0.19263774 -0.19282562 0.6588389
3.4731243 0.20687062 -0.47440612 0.2122187 -0.7374744 -0.00022724643 0.91381764 -0.7087775
0.016663745 -0.6725193 -0.6422501 -0.01527367 0.30270424 0.18649809 1.1426424 1.1646703
0.017558306 0.6756829 0.22617945 0.10536327 -0.46888155 0.10623052 0.093327165 -0.2581403
-0.33898523 0.70070624 -0.14861527 0.77715564 -0.05611986 0.3000855 -0.03621331 -1.3419122
0.3844384 0.91866976 -0.1565511 1.53618 0.7745053 0.12591837 -0.12321278 0.19387749
-0.18609904 0.27149856 -1.1176165 -0.008188628 0.15421286 -0.74219733 -0.15922153 2.0495183
1.779591 1.5389163 -0.052134603 0.019042969 0.9403739 -0.5273777 -0.073651284 0.37841076
1.155549 0.14287803 0.023121923 -0.34339246 1.0068653 -0.279216 -0.40060616 1.6967058
00000000: 7c60 8a3f f036 ba3f 18c1 bfbc 700c 843c
00000010: ebd5 8abb d442 45be 1474 45be aba9 283f
00000020: ab47 5e40 e4d5 533e 5ce5 f2be dc4f 593e
00000030: 1fcb 3cbf 0049 6eb9 f4ef 693f 7172 35bf
00000040: 6882 883c 3a2a 2cbf 816a 24bf 6a3e 7abc
00000050: 0dfc 9a3e 5bf9 3e3e 1b42 923f eb13 953f
00000060: 70d6 8f3c 8ef9 2c3f 969b 673e b3c8 d73d
00000070: 3e11 f0be 638f d93d 5022 bf3d f72a 84be
00000080: 798f adbe 7c61 333f 9a2e 18be acf3 463f
00000090: f0dd 65bd cfa4 993e 6854 14bd c7c3 abbf
000000a0: 1cd5 c43e f12d 6b3f ee4e 20be 8ca1 c43f
000000b0: fb45 463f bff0 003e fb56 fcbd d287 463e
000000c0: bf90 3ebe dc01 8b3e 0f0e 8fbf 9829 06bc
000000d0: fae9 1d3e a500 3ebf f80a 23be 4f2b 0340
000000e0: a3c9 e33f 36fb c43f 188b 55bd 0000 9c3c
000000f0: 58bc 703f 3a02 07bf 7cd6 96bd 0ebf c13e
00000100: 08e9 933f 9e4e 123e 306a bd3c 23d1 afbe
00000110: f6e0 803f 66f5 8ebe 401c cdbe a82d d93f
