workspace/models/seg_xray_96_96_2.0.onnx (onnx, 912603 bytes, 109 tensors)

last_conv14.0.weight f4 [16, 1, 2, 2]
00000000: 0af2 d3be bf36 6f3e 1d7e b9be cb3a 883e
00000010: ea20 d23e 39ec d53d 78f6 fd3e f7ac 213e
00000020: 987b b63d 6dc6 eabd 296a 863f 1f95 333f
00000030: bc34 6c3f 5e07 2f3f 4f12 513f 99f6 3a3f
00000040: 1b5a 38bf 2493 3abf e381 c4be c66c e0be
00000050: 023c 913e 4a2d 0e3f 4bec 023f ea98 6a3f
00000060: 5250 2dbf 4ebc 51bf dc33 5cbf 27e1 6abf
00000070: 06f3 6ebb ed2c 3a3f 66fd 0e3e e8d6 603f
00000080: de17 59bf 6be0 60bf 7be3 16bf 2e95 48be
00000090: 7dff 873f cbb9 803f b897 af3e 5112 0e3e
000000a0: 4226 9d3e 14ba 7f3e 8759 a63e d785 703e
000000b0: b0ea 693f 8e50 383f 0ce5 2e3f 99fc f23e
000000c0: 2a9c 89be 4a27 373c 66a9 4cbf 2ffe 03bf
000000d0: 6014 d83e a3e6 ae3e cd34 21be 5874 8ebd
000000e0: 481f b03e e8df f2be 4c06 f93d 406b 22bf
000000f0: 15fa b6be 8a39 90be 773e 2dbe 0e46 26bf
-0.413956 0.23360728 -0.3622903 0.26607355 0.41040736 0.104454465 0.49602103 0.15788637
0.089102924 -0.11463628 1.0501148 0.70149416 0.92267966 0.68370616 0.8166856 0.7303253
-0.7201249 -0.7288077 -0.38380346 -0.43832988 0.28366095 0.55537856 0.51141804 0.9163958
-0.67700684 -0.81927955 -0.8601663 -0.91749805 -0.0036460771 0.727248 0.13963851 0.8782792
-0.84802043 -0.87842435 -0.5894086 -0.19588158 1.0624844 1.00567 0.3429544 0.13874175
0.3069325 0.24973327 0.3249018 0.23488556 0.9137373 0.71997917 0.6831825 0.47458342
-0.26876956 0.011178801 -0.7994598 -0.5155973 0.42203045 0.34160337 -0.15742798 -0.069557846
0.34398866 -0.47436452 0.12159404 -0.634449 -0.35737672 -0.281689 -0.1691836 -0.64950645

onnx::Conv_663 f4 [16, 3, 3, 3]
00000000: de0e 04be 0e30 1b3f d2d4 7c3e 6528 313e
00000010: cd68 be3e 052b aa3e cdad 75be 7040 2bbe
00000020: 0de4 4fbe 22d2 473c 799e 283f 7b7a 913e
00000030: f44b e2bd 5ad6 1e3e 8d61 643e 457e 25be
00000040: c647 9dbd 3a1c 21be 30be a83d 210b 273f
00000050: b02d c13e cb48 153e 07ff 8a3e c53b a93e
00000060: ccfa f0bd 95e4 dbbd bbfc 9abe a4da f73e
00000070: b6f7 60be 2d97 973d 1060 adbf 09ff b1c0
00000080: c989 39bf f282 2440 862f 81bf 5b33 f93f
00000090: b0d6 bc3e ef3a 6ebf 7d27 3d40 1caa 913b
000000a0: ad11 1ec0 710f b93e d3da 5c40 4a11 82bf
000000b0: 1cee 4540 a935 7840 6323 36bf e4fd c83f
000000c0: 591f debf 77ef adc0 c027 3fbf 8816 1040
000000d0: cf0e 76c0 009f 3040 94e6 d2be 4fd5 27bf
000000e0: 7020 05bf 47b0 a33e e73e 71bd 004d a3be
000000f0: 5891 003f dbdd 393d 83ae b6bc c90e 60be
00000100: c531 36bf 1a21 33be 055d 183e ee85 d93d
00000110: bb31 ad3d f61e c53e 025d 7b3d 9de4 423e
00000120: 656b 8ebe ca81 18bf 64d7 ecbe cd0d 08bd
00000130: 8655 7bbe 92de 0dbd ba55 573e 6744 603e
00000140: 325b 9d3c 35f3 c43e f691 203f fd58 cc3e
00000150: a366 f13e c757 86bf d120 95bf 5ab7 cc3e
00000160: 0b48 95bf 8493 92bd cf71 6e3f 4d87 8d3f
00000170: 0ddf ac3f 42e0 a5be 8189 abbf 0977 0dbe
00000180: 07f5 1f3f f9fd 6fbf 7f26 39bf ae5c cf3f
00000190: 2bbb 3e3e 5736 8c3f c5d6 513f a73a 53bf
000001a0: deb7 91bf 70eb 243f c859 abbf 7630 babf
000001b0: eff5 103f 7609 5bbf 8ab5 593e 1b9a f13e
000001c0: 2112 c6bf b6fe 0bbf 4da4 593e 65d3 afbe
000001d0: ebfe 413f 3dc2 6c3e aac0 d4bf fb4a 4b3f
000001e0: 217b 963f 3b7f b9bf 1991 96be 5539 d13f
000001f0: 3f70 3bbf 4b2c 82bd 4845 7c3f e3eb 22bf
00000200: 508a 7ebe 8a71 9b3f 04d3 c3bf 2f91 653f
00000210: beb2 ae3d 0140 05bf c4c3 5ebe b879 74be
00000220: 130f 863f 633f f6be ecfe 30bf cd46 3e3e
00000230: a8fb 92bf 4de2 543f cbc2 0a40 c553 81bf
00000240: 2a6c 3f3e 146b 1d3f 16a4 033e d348 49bf
00000250: 0e17 bdbd 6468 81bf 6bc5 13bc 0c57 0740
00000260: 5bb4 24bf 54c8 38bf dcb8 26bd d605 67bf
00000270: 3d4c 733e ef0d 763f fb75 85bf 4d25 083f
00000280: 70c2 e33f b6ef 733e c3fe c4be 8b05 82bf
00000290: b62f adbf 2800 833f d12a ff3e 1428 20bf
000002a0: 7377 743f 4a59 823f 216a b33c 0bb1 173d
000002b0: 3864 9ebe f6d5 e8be 595b 443f 89dc a7bd
000002c0: 7a18 d0be ec10 6d3e 2a4c c03f 08e4 1c3f
000002d0: e69e 91bf 3418 a8bf abc4 96bf be92 9d3e
000002e0: e355 563e 13c5 65bf f27f f13e ee65 923e
000002f0: 805b bf3e 3a08 11be 3e76 0e3e 79e6 aabe
00000300: 5161 a03e 45d2 ee3e cb39 b13d 48fb fcbd
00000310: 80fa 493f 06c6 54bc 8f27 1d3d 5539 c33d
00000320: 4e93 a838 1ed0 55bd 9fe3 e83e 05aa acbd
00000330: 6d07 14be 8633 2d3f 9776 183e 651b 37be
00000340: 1628 ccbb 327f a93c 4d3a c5bd 8dfc 463f
00000350: 7b65 943d c1d0 613e ebf2 553f 8b7f 4cbe
00000360: 78d2 d7bc e277 5e3d 88d7 5b3c dca6 d8bc
00000370: 4b17 683e 9e93 8f3e f77d 22be 52b4 043f
00000380: 05fa 483e cc72 4ebe 7592 cb3d 01a9 88bd
00000390: d12a fabd cee1 783e 2e64 093e f022 e63d
000003a0: f6db 043f 7287 933e 5389 8fbd 080c f13d
000003b0: 9319 dd3d 8023 f03d a17c ac3e ee54 363d
000003c0: f1bc b039 3d53 213f c717 ab3e 26c4 18be
000003d0: 9b6b a23e 77f1 52be 0567 793d f659 fb3e
000003e0: 2048 843e 389d 04be 27a4 dbbd 6787 6ebe
000003f0: dce3 8d3e fbc0 303f 35e3 373e 2353 233e
-0.12896296 0.606202 0.2469056 0.17300566 0.37189332 0.33235946 -0.23992081 -0.167238
-0.20301838 0.012196096 0.6586681 0.28413758 -0.11049643 0.15511456 0.22302838 -0.16161449
-0.07679705 -0.15733424 0.082394004 0.65251356 0.3773017 0.1457855 0.27147695 0.33053413
-0.11766586 -0.10736958 -0.30270943 0.48408997 -0.21969494 0.07401881 -1.3544941 -5.562382
-0.7247587 2.5704923 -1.0092628 1.9468797 0.36882544 -0.93058676 2.9555352 0.0044453274
-2.4698288 0.36144593 3.450856 -1.0161526 3.092658 3.8782752 -0.71147746 1.5702481
-1.7353317 -5.4354815 -0.7467003 2.2513752 -3.8446538 2.7597046 -0.41191542 -0.6555986
-0.5200262 0.31970426 -0.05889788 -0.31894684 0.50221777 0.045377593 -0.02230001 -0.2188064
-0.7116969 -0.17493096 0.14879234 0.10621248 0.08456751 0.38500184 0.061367996 0.19032522
-0.2781631 -0.5957304 -0.4625808 -0.033216286 -0.24544343 -0.034636088 0.21028796 0.21901093
0.019208524 0.38466802 0.6272272 0.39911643 0.47148618 -1.0495538 -1.165064 0.39983636
-1.1662611 -0.071570426 0.9314241 1.1056916 1.350557 -0.32397658 -1.3401338 -0.1381494
0.6248326 -0.93746907 -0.72324365 1.6200159 0.18626086 1.0954083 0.8196834 -0.8251137
-1.1384237 0.6442175 -1.3386774 -1.4546039 0.56625265 -0.8556131 0.21260658 0.47187886
-1.5474283 -0.54685533 0.21254082 -0.3434097 0.757796 0.23120971 -1.6621296 0.79411286
1.1756326 -1.4491953 -0.29407576 1.6345621 -0.7321815 -0.063561045 0.98543215 -0.63641185
-0.2485745 1.2144024 -1.5298772 0.8967466 0.08530186 -0.5205079 -0.21754366 -0.23874557
1.047335 -0.48095235 -0.6913898 0.18581696 -1.1483049 0.8315781 2.1681392 -1.010369
0.18693605 0.61491513 0.12855563 -0.78626746 -0.09232913 -1.0109982 -0.009019236 2.114688
-0.643377 -0.72180676 -0.04070364 -0.9024328 0.23759551 0.9611501 -1.042663 0.53181916
1.7793713 0.23821911 -0.38475618 -1.0157942 -1.3530185 1.0234423 0.49837354 -0.62561154
0.95494765 1.0183499 0.021901192 0.037034076 -0.30935836 -0.4547574 0.76701885 -0.081963606
-0.40643674 0.23150986 1.5023243 0.6128545 -1.1376617 -1.3132386 -1.1778768 0.30776018
0.209312 -0.89753836 0.47167927 0.2859339 0.37374496 -0.14163294 0.13912293 -0.33378962
0.31324247 0.46644798 0.08653601 -0.123526156 0.7889786 -0.012986666 0.038367804 0.095324196
8.038302e-05 -0.05220043 0.4548616 -0.08430866 -0.14455958 0.67656744 0.14888988 -0.17881544
-0.0062303646 0.020690534 -0.096302606 0.7772911 0.07245918 0.2205229 0.8357379 -0.19970529
-0.026345477 0.054313548 0.013418086 -0.026446752 0.22665136 0.2804231 -0.15868364 0.51837647
0.19626625 -0.20160979 0.09940044 -0.0667286 -0.12215198 0.24304888 0.13417122 0.112371325
0.51898134 0.28814274 -0.070086144 0.11769873 0.107958935 0.11725521 0.33688834 0.04451459
0.00033710108 0.63017637 0.33416578 -0.14918575 0.3172272 -0.20599924 0.060889263 0.49092072
0.25836277 -0.12950599 -0.10724669 -0.2329384 0.27712905 0.69044465 0.17957766 0.15949683

onnx::Conv_664 f4 [16]
00000000: 9543 49bf 8469 ed3e 0933 463f 0ae5 953f
00000010: 57c2 5b3f d3a1 4ebf d05e 193f 2055 fdbe
00000020: 39f5 a8bf 6d6e 6abf 738b 0440 8f9b bfbf
00000030: d458 7dbf 0842 95bf 84d2 ee3f 9397 e03e
-0.78618747 0.46369565 0.77421623 1.1710522 0.85843414 -0.80715674 0.599103 -0.49479008
-1.3199836 -0.91574746 2.0710113 -1.4969348 -0.98963666 -1.1660776 1.8657994 0.43865642

onnx::Conv_666 f4 [16, 16, 1, 1]
00000000: 2851 0e3d be41 35be 53dd 7c3e 948f 3f3f
00000010: eb51 8e3e eb4c 473c 9946 81bd bf40 c7bd
00000020: 40f6 22be d222 29be 7f59 16bd 3094 8dbe
00000030: 852f b7be 7304 f5bd fa91 cf3e 4eb0 cb3e
00000040: d97b d33c f830 ff3d 48ae 613d 9298 67bd
00000050: 0427 903c d987 663e abb4 8abd 6427 8c3d
00000060: 5f34 ae3e 1aca 153d 5f1d c83c 7d9f 943e
00000070: 7fa5 103e 38db 5b3c 6940 ba3c f999 2fbd
00000080: f5ca 29be 4428 32be 54dc 1a3e 5118 bc3d
00000090: 7b75 013e 3d86 803e 1fd7 963c 3810 a33e
000000a0: 559e 3cbd 2e13 27bc d9c9 9cbe 0327 063d
000000b0: 2ea9 8d3e 0969 d53e 70d0 57bd 09f1 163f
000000c0: 65c5 1e3e 06a3 363d 0604 31be 1339 df3d
000000d0: f674 1d3d f1d3 a93d 0165 00be db61 703e
000000e0: 45e6 643e 2362 073e a0c2 89bd e591 133e
000000f0: e68a 813e 7b1b 933d 497b 3b3c 8b10 d9bd
00000100: 18fc 5e3d b641 05bd 5e41 1f3e 9f3f 00bd
00000110: b5a2 913d d85b bb3d f2ea 923d b2dd eb3d
00000120: 0abc 773e 4326 373d 8c58 593e cf36 c13e
00000130: 83f2 103e 5588 a73b 9f36 ae3d 0a43 9dbc
00000140: 3889 9a3e 2a2c 8dbd 90e7 15bd d2cb 223d
00000150: f945 8b3a a3a1 8dbd 8f22 8bbd e86d 18bb
00000160: 55ab 4bbc 4ea0 d33e 9012 94bc 61f6 103e
00000170: 1372 9e3e 79f2 873d 99b1 d8bd cafb 18be
00000180: 03e9 423f 21c0 453e f7df ec3d 93e6 7ebd
00000190: 19c4 97bd e968 81be adcb cbbe e503 bc3d
000001a0: c119 3d3e 72c7 a33e 3d7e cd3d 1947 343d
000001b0: 564f ae3e 3fc1 06be 6881 203c 60cb 86be
000001c0: 7dc2 6a3c 01bb 96be 264f 99bd ce44 b8be
000001d0: c729 89be dcc2 a33d f90b 83bc d80a 393e
000001e0: 2f69 803d eb33 08be f516 02be b94a 873e
000001f0: 59c9 d23d aee8 81bc 3e07 83be e2ad 41be
00000200: 5ea9 bebe 4cc1 b0bd 2e9c 3d3e ed16 0ebd
00000210: 5358 fb3d 3b30 313e 80ed 203e 449f 05bd
00000220: d59f 8cbd 6a70 16be 0a65 2a3c ad83 03be
00000230: b4e9 5cbe 2eb8 49bd cb0c 8c3b 9b43 403e
00000240: b38f 83be b9d0 7e3e a8c0 073f 73fb fe3d
00000250: a80e 623e e4f6 433d 2f50 823e 5ef2 f03d
00000260: f6a3 0ebe 0797 47bc b9cd a83e b606 623d
00000270: 8768 56be ac81 df3d e590 7a3e f52a 503d
00000280: 1b6b 49bd 9978 963d c0d2 5ebe c407 853e
00000290: 2d01 22bd 786a d7be 1564 5abe 640f 93be
000002a0: 9ba1 33be bc51 84bd 1bf0 04bd a7af 393d
000002b0: 6a80 c7bd e356 b7bd cafa 843e 2521 7dbe
000002c0: b667 b3be 76d5 bf3e 0a6a 023e 2a01 64be
000002d0: 99a4 a13c 9519 a93e c0b3 393f 652b 73bd
000002e0: fd60 a0bd bb40 8cbe d0e0 813e 2a2d 973d
000002f0: 9545 b8be 442f be3d 8ac7 91bd f5a3 663e
00000300: a8c1 f83d 91ba 793d 0976 0dbe f44e 533d
00000310: 2cc3 09bd 7f25 abbe 2198 a6be e261 93be
00000320: 4902 5dbe 9c1b 133e 8ef3 b1bc accf 8cbe
00000330: e2bb e0bc 78b7 9e3d b5c4 803e 0d43 7ebd
00000340: f10c 7ebe 3b22 6c3e 1446 633e b22f a5be
00000350: 6ce3 383c d0b7 c1bc 6986 c1be 7c10 233b
00000360: 49f2 57be 34af 93be a12e ff3e 27bb d23c
00000370: 90e0 15bd 2294 bebd c97e 3f3e 5f48 98be
00000380: 64eb aebc 2ed4 07bf 589e d1bd 8a8f ebbe
00000390: 500f 87be 956b ebbd 204e 433d 600c c33d
000003a0: be95 913d e984 31be 0393 cebe 665f 12bd
000003b0: fc42 3fbe e591 0e3e 53bb 17bf 1322 3abe
000003c0: ff6b 773e 7161 3ebd 3650 01be f07e 33be
000003d0: 0226 0cbf 7199 09be 3c8b adbe 1a0a 1d3d
000003e0: 3088 4f3e 4f96 0e3e e1a1 8c3d ae12 4bbd
000003f0: 9a1d a53d 956a 08bc 5cba 88be 5b5e a0be
0.034745365 -0.1770086 0.24693803 0.7482846 0.27796873 0.012164335 -0.063122936 -0.09729146
-0.1591425 -0.16517189 -0.036706444 -0.2765212 -0.35778442 -0.11963739 0.4054106 0.39782947
0.025815891 0.12460512 0.05509785 -0.056541987 0.01759673 0.2251276 -0.06772741 0.06843451
0.3402433 0.036569692 0.024428068 0.2902793 0.14125632 0.013418965 0.022735791 -0.04287145
-0.16581328 -0.17398173 0.15123111 0.091843255 0.12642471 0.25102416 0.018413125 0.3184831
-0.046049435 -0.010197444 -0.30622748 0.03275205 0.27668136 0.41681698 -0.052689016 0.5896154
0.15504988 0.044589065 -0.17286691 0.10899558 0.03844162 0.08292378 -0.1253853 0.23474829
0.22353466 0.1322103 -0.06726575 0.14411123 0.25301284 0.07182976 0.011442968 -0.105988584
0.054439634 -0.03253337 0.1555228 -0.031310674 0.07111112 0.09148377 0.071737185 0.115168944
0.24192825 0.044714224 0.21225184 0.37737128 0.14155011 0.0051126876 0.08506512 -0.019197006
0.30182815 -0.06893189 -0.03659779 0.03974516 0.0010625712 -0.069155954 -0.06793701 -0.0023258869
-0.012430985 0.4133324 -0.018075258 0.14156486 0.30946407 0.06638045 -0.10580749 -0.149398
0.761368 0.19311573 0.115661554 -0.06223161 -0.074104495 -0.25275353 -0.3980383 0.0918043
0.18466856 0.31988102 0.10033844 0.044013117 0.34044904 -0.13159655 0.009796478 -0.26327038
0.014328596 -0.29439548 -0.074857995 -0.35989994 -0.26789686 0.07996151 -0.01599692 0.18070543
0.06270062 -0.13301055 -0.1270407 0.26424196 0.1029231 -0.01585802 -0.25591463 -0.18913987
-0.37238592 -0.086306185 0.18516609 -0.034689832 0.12272706 0.17303555 0.15715599 -0.03262259
-0.06866423 -0.1469132 0.010400066 -0.12843199 -0.21573526 -0.049247913 0.004273986 0.1877579
-0.2569557 0.24884309 0.53028345 0.12450304 0.22075903 0.047842875 0.254518 0.11764978
-0.13929734 -0.012182004 0.32969454 0.05518218 -0.20938312 0.10913405 0.24469335 0.050822217
-0.04917441 0.07347221 -0.21760082 0.25982487 -0.039551903 -0.42073417 -0.21327241 -0.2872268
-0.17542116 -0.06460902 -0.032455545 0.04533353 -0.0974129 -0.08952119 0.25972587 -0.24719675
-0.35040063 0.37467545 0.12735763 -0.22266069 0.019731807 0.3302733 0.725399 -0.059367556
-0.07830999 -0.27393135 0.2536683 0.07381661 -0.35990587 0.09286359 -0.07118137 0.22523482
0.12146312 0.06096894 -0.13814558 0.051588967 -0.033633396 -0.33427045 -0.3253794 -0.28785616
-0.21582903 0.14366001 -0.021722581 -0.2750219 -0.02743334 0.07749838 0.25150076 -0.062075663
-0.24809624 0.23059933 0.22194701 -0.3226295 0.01128469 -0.023647219 -0.3779786 0.0024881652
-0.21088518 -0.28844607 0.49840263 0.025724007 -0.036591113 -0.09305598 0.18700708 -0.29742715
-0.021352477 -0.53058136 -0.1023528 -0.4600795 -0.2637887 -0.11495129 0.047681928 0.09523845
0.07108639 -0.17335857 -0.40346536 -0.03573551 -0.18677896 0.13922842 -0.5927021 -0.18177061
0.24162291 -0.046479646 -0.12628254 -0.17528892 -0.54745495 -0.1343744 -0.3389529 0.03833971
0.20266795 0.13924526 0.068668135 -0.04957836 0.08062287 -0.008326192 -0.2670468 -0.31321988

onnx::Conv_667 f4 [16]
00000000: 3872 21be 9c2f 3fbf c1c6 60be 9684 e1be
00000010: a8a7 8fbf 99eb a1be 8b35 34bf b670 063f
00000020: 7a51 1f3f 8e75 a1be 890d 0f3f c228 273e
00000030: 2a9f 223f 22f6 0e3f f2d9 a03f d53d b63e
-0.15766227 -0.7468202 -0.21950819 -0.44046468 -1.122304 -0.3162506 -0.703942 0.52515733
0.622337 -0.31535 0.5588003 0.16324142 0.63524115 0.5584432 1.2566512 0.3559405

onnx::Conv_669 f4 [16, 1, 3, 3]
00000000: fba4 01be ee39 0abf 0573 d03c 97e9 95be
00000010: 8a5d 88bf 291e c53e a652 b6be f546 64be
00000020: e41e 123f 475d d8be 79e6 c8be cac1 b7bc
00000030: 13cc c3be 3f0b 4cbe 6fb5 9d3d 7711 7abe
00000040: 2d82 54bf 242b a1be 9e5e 98bd c08b a1be
00000050: 731c 0d3c e802 92bf aea4 64bd ed2e 033e
00000060: a007 963e cc76 613f 1673 fa3f 156d a53f
00000070: b566 ab3f eff7 a93e ba22 edbe 4b8f 853f
00000080: a8d4 87bf 7472 60bf 5311 a8be 207b bebe
00000090: 408b aa3f c55f 7c3f 3432 963f dd48 d3bd
000000a0: 6be6 b33d 180e 0d3f 2e0f 563e bfad 0b40
000000b0: 30fb dd3f 79f9 53bf 3465 5abf d516 c9bf
000000c0: 7350 803f 0ed6 bbbe 811b c43e 272c ae3f
000000d0: d60c 6b3e 150d 403f 9cff 9fbe b019 f7be
000000e0: 508b 7a3e ea5a 09bf 0c7d 0d3f b506 863f
000000f0: 979a 69bd fdc1 833e f92a a03e 5914 39be
00000100: be51 a9be 397f 4f3f 66cb 25bf a0fe b5be
00000110: 9838 583f 3a51 19be da26 b9bf 4424 093e
00000120: bab3 26bf 74ba 4dbf 3270 12bf d6ff 6d3f
00000130: 4db4 533e 69a2 37bc 9039 5b3f 3563 9b3e
00000140: 9b1b efbf 75ba d8bd 6f83 e93e 2827 17bf
00000150: d309 843f f26d edbe 6cce 85bd 0ddc ae3f
00000160: 998b 413f 8221 95bf 54ac 8240 849c be3e
00000170: e00d 353f a848 54be ed5d 283f ee4d 1ac0
00000180: b450 4fbf 958e 21c0 8c8d ef3e 9ed8 d1bc
00000190: b047 da3d 5226 a43d 551e 5abe 6b0e bdbe
000001a0: c00c c0be 417b b63e 774a 78bd 44fa ee3d
000001b0: 55b8 e5bf 3f00 e43d 29e5 a83f 4f25 23c0
000001c0: 5773 dbbf 47da 0e40 733c 5fbb b95e 99bc
000001d0: 34b9 6b3f 35c7 77bf e6ff 4ebf e393 e6bc
000001e0: c7ee 9cbe a939 843f 596f 0e3e 35f7 0cbf
000001f0: 8de4 a23f 8944 ce3f 98ad ce3e 0d43 8abf
00000200: 6fc0 e1bd 5df6 223e 287a b4bf 0903 12bf
00000210: 91da 5d3f 7cf9 0d3f 2587 92be c663 de3e
00000220: 61f2 ae3f 6fc7 593e 683d 823e ffa7 4c3f
00000230: e40a 8ebe 2db8 8ebf 9e21 59be fb50 53bf
-0.12660591 -0.53994644 0.02544547 -0.29279777 -1.0653546 0.38499573 -0.3560993 -0.22292693
0.57078385 -0.42258665 -0.39238337 -0.022431273 -0.38241634 -0.19926165 0.07700621 -0.24420725
-0.8301113 -0.31478226 -0.07439922 -0.31551933 0.00861274 -1.1407137 -0.055821113 0.1281087
0.29302692 0.88071895 1.9566371 1.2923914 1.3390719 0.3319697 -0.46315557 1.0434355
-1.0611773 -0.8767464 -0.32825717 -0.37203312 1.3323746 0.9858363 1.1734071 -0.10316632
0.08784183 0.5509963 0.20904228 2.1824796 1.7342281 -0.8280254 -0.85310674 -1.5710093
1.0024551 -0.36686748 0.38302234 1.3607224 0.22954115 0.7501996 -0.31249702 -0.48261786
0.24467206 -0.5365435 0.5526893 1.0470797 -0.057032194 0.2573394 0.31282786 -0.18074168
-0.33070177 0.810535 -0.64763486 -0.35545826 0.84461355 -0.14972392 -1.4464982 0.1339274
-0.6511799 -0.8036263 -0.57202446 0.929685 0.20674248 -0.011208155 0.8563471 0.30349126
-1.86803 -0.10582439 0.45608088 -0.5904412 1.0315498 -0.46372944 -0.065335125 1.3660904
0.75603634 -1.1650851 4.083536 0.37228787 0.70724297 -0.20730841 0.6576832 -2.4110065
-0.8098252 -2.5243275 0.4678768 -0.025615986 0.106582046 0.080151215 -0.21300633 -0.36925063
-0.37509727 0.3564091 -0.06061789 0.11668828 -1.7946879 0.111328594 1.3194934 -2.5491521
-1.7144574 2.2320726 -0.003406313 -0.018721925 0.9207947 -0.9678834 -0.8085922 -0.02814669
-0.30650923 1.0330096 0.13909663 -0.5506471 1.2725998 1.6114665 0.40366817 -1.0801712
-0.11023032 0.15914293 -1.4099779 -0.5703588 0.8666163 0.5545881 -0.28618732 0.43435496
1.3667718 0.21267484 0.25437474 0.7994384 -0.27742684 -1.1149956 -0.2120423 -0.8254544

onnx::Conv_670 f4 [16]
00000000: 72cc b33f 15b0 663f 4099 23bf a3f8 2abf
00000010: 2a09 a6be 590f 18be 8d7c 2cbf 3812 433f
00000020: 5da5 863f 9e41 4fbf 71ba 33be 162a ef3e
00000030: 5658 853f c8c3 85bf 6c56 6b3f 962b 84be
1.4046767 0.9011243 -0.63905716 -0.6678564 -0.32428867 -0.14849605 -0.6737755 0.76199675
1.0519215 -0.809595 -0.1755159 0.46711797 1.0417583 -1.0450373 0.91928744 -0.25814503

onnx::Conv_672 f4 [8, 16, 1, 1]
00000000: 5792 3fbf 60ee 5b3f cbb0 e8bf 1629 dcbe
00000010: 85fb c33d ac8e 2bbf 50fb f0be 8a85 a53f
00000020: 8cda 1bbf ccb0 33be a8c4 76be 4ee6 8f3e
00000030: cb16 63bf bfb0 033e 2297 523f 169c 683e
00000040: 821c be3f b86a f33f e170 3e3d 0028 14c0
00000050: a922 203f fe57 d8bf 3adb 31bd e7ce bdbe
00000060: af9c e93e 58e6 8abe 1f24 2ebf 07f7 0240
00000070: de7b 1c3f 98ed 44bf 3995 e3bf d4bf b5bf
00000080: b5ab fc3f 5e2d 793f cb9e cfbf 2ac0 0bbf
00000090: 0de9 1640 f029 0440 24cc 1040 5fc8 023f
000000a0: 0e4f b43f a345 95bd 8e37 ce3f ed39 273f
000000b0: 921a 2ec0 ed00 edbe 292f 0ec0 a791 50c0
000000c0: 8c6e 7ebe 58b9 d53f eb8b bebf 840a 6d3f
000000d0: 27be 963f a320 1d3e 4ec8 f2be 549e 973f
000000e0: 37a0 423e 839a 7dbf 7251 3d40 3178 703e
000000f0: 956f 72bd 17ea cc3f 88c6 093f 5549 203e
00000100: d809 dcbd 2759 183d a759 88bf 3ab3 ccbf
00000110: 867d 71c0 b6f9 c23d 949c eebe e289 26be
00000120: 761f 26be 2e67 a23e 763f 2fbf 3224 623f
00000130: cc96 08bd 0c07 07bf a934 603e c427 56bd
00000140: 1242 e6bf f0b7 27c0 01ed 733f 2d87 a73f
00000150: ef81 343f 13b3 a8be 3334 6540 7741 f53f
00000160: 3a77 e3bf 6f22 b13e a1e4 803c d5f8 253f
00000170: 6997 0ac0 be31 05bf 9f74 1c40 f01b 42bf
00000180: a210 f73f 3686 3740 3f52 6bc0 682e 4a3f
00000190: e785 ff3f 63a4 6cc0 54b9 fdbf 683e f1be
000001a0: 2e6a bc3f dc09 603f 73f0 53be 261b 0f40
000001b0: 6180 1840 9196 27bf 38a0 08bf d2cd f7be
000001c0: d40b 24be 3457 41c0 a4fe 1f40 6138 903f
000001d0: 81b5 883f ac2b 0c40 0776 2240 fa9c ce3e
000001e0: e5ec babe 358d 1bbf 4b2e 6dbc 49cc e9be
000001f0: 3a12 853e 9ccb c23d c62a 3c3e a1f5 953f
-0.7483267 0.85910606 -1.8178953 -0.43000096 0.09569458 -0.67014575 -0.47066736 1.2931378
-0.6088035 -0.17547911 -0.24098456 0.28105396 -0.88706654 0.12860392 0.8226186 0.22715792
1.485245 1.9016943 0.04649437 -2.3149414 0.6255289 -1.6901853 -0.04342196 -0.37071916
0.45627353 -0.27128863 -0.68023866 2.0463274 0.61126506 -0.7692504 -1.7779914 -1.4199166
1.9739901 0.9733485 -1.6220335 -0.54590094 2.3579743 2.0650597 2.2624598 0.5108699
1.4086626 -0.07288673 1.6110704 0.6532276 -2.7203717 -0.4628977 -2.2216284 -3.25889
-0.24846858 1.6697187 -1.488645 0.9259417 1.177678 0.15344481 -0.47418445 1.1845193
0.1900643 -0.9906389 2.958096 0.2348335 -0.059188444 1.6008939 0.5381856 0.15652974
-0.10744065 0.037194397 -1.065236 -1.5992196 -3.7732863 0.09520285 -0.46603835 -0.16263536
-0.16222939 0.31719345 -0.6845621 0.8833648 -0.033346936 -0.5274513 0.21895088 -0.052284017
-1.7988913 -2.6206017 0.95283514 1.3088127 0.7051076 -0.32949123 3.581311 1.9160603
-1.777076 0.34596583 0.015734019 0.6483281 -2.1654913 -0.52029026 2.444618 -0.7582388
1.9301951 2.8675666 -3.676895 0.7897706 1.9962739 -3.6975334 -1.9822183 -0.47117925
1.4719903 0.87515044 -0.20697193 2.236032 2.3828356 -0.6546412 -0.53369474 -0.48399216
-0.16020137 -3.0209475 2.499917 1.1267205 1.0680391 2.1901655 2.5384538 0.4035414
-0.3650886 -0.6076234 -0.014476369 -0.4566367 0.25990468 0.09511492 0.18375692 1.1715585

onnx::Conv_673 f4 [8]
00000000: f421 6d3f 405b 51bd 6403 99bf e30f 52c0
00000010: 5878 6940 b220 ad3e 628c 0cc0 af8c 43c0
0.92629933 -0.051112413 -1.195416 -3.2822196 3.6479702 0.33814007 -2.1960683 -3.0554616

onnx::Conv_675 f4 [16, 8, 1, 1]
00000000: 594c 483e 70b0 ecbe 1688 1fbf d757 603d
00000010: 209e 013e 7ef8 85bd 482d 5c3d 034a 4f3d
00000020: 6a02 1cbe 501e 9c3e e0a6 553f e9a0 5a3d
00000030: 8f46 d2be e62e a63e a125 ebbc 7903 543f
00000040: f929 ab3e a8bd 36be bea0 153e d283 98be
00000050: 7880 363f cb68 cfbe 9692 813e cffc bebe
00000060: 2f9b c73d 01ec 9c3e abc7 8c3e 956e e23c
00000070: 9967 8bbd 532e 983d 3262 013f 21e7 8dbc
00000080: edcb be3d 67e3 08be 5c67 9cbd d4f5 053e
00000090: ca6d 463d ae2e 823d 8eb1 73be 84a2 0cbe
000000a0: 8343 6abe 40f5 0f3f 7c3f 6f3d 2af7 14bf
000000b0: a6a3 9f3d 6884 34be b2f2 abbd ace4 b33d
000000c0: be50 32bf 377e 043f 869a 173e 3a41 47be
000000d0: e361 1fbf 9bd2 033f 944e b2bd 24c9 bfbe
000000e0: 23ca 0cbe 63b0 b43e aac1 953e 66e1 28bf
000000f0: 1d57 2dbd 5a93 01bf 0758 173f 457b 6fbe
00000100: 4cce 7dbd d7f1 0abf 3868 883d f449 693d
00000110: 6201 5a3e 89b6 07be fb58 58be e092 18bd
00000120: 8dd7 d2bc 7932 b5bc 8ac1 71be c023 aa3e
00000130: 2911 703e 15db 82be d774 3abf ec4c 38be
00000140: c26d 073f 9ccf 193e 1d83 eabe ac71 793e
00000150: 1612 4c3d 96b0 27bf 1ea6 c4be 6a0c 80be
00000160: a3d5 25be 02ab 3c3f 854e 7bbe 0a7c e4be
00000170: b353 c9be b583 5a3d 3a3a 60bd ae0b e1be
00000180: b627 ca3e 3195 a3be 0b54 c03d 5f8b 203e
00000190: 89ff b63e 2fc8 9abe 9021 77be 59f4 c0be
000001a0: 8028 143e e60a 6f3e fec1 20be 2dfd 743c
000001b0: 168a 4b3e d512 0abf af93 a93e b45f 07be
000001c0: 94a1 8c3e 02a2 433e 81bb 053f 7bad 8d3e
000001d0: 7578 a13e 5aab 77bf 3ce5 97be 3e8e 17bf
000001e0: 3ffc ed3e 2f3c f73c 21cd 92be b717 9cbe
000001f0: 638b f83e 8d5c 31bf 1bf8 52be 38a8 00bf
0.19560374 -0.4622836 -0.62317026 0.05477127 0.12657976 -0.06541537 0.05375412 0.050607692
-0.15235296 0.30491877 0.83457756 0.053376112 -0.41069457 0.32457656 -0.028704466 0.828178
0.3343046 -0.17845786 0.146121 -0.2978807 0.7128978 -0.40509638 0.2530715 -0.37302253
0.09746396 0.30648807 0.27496085 0.02764062 -0.06806869 0.07430711 0.5054046 -0.017322125
0.093162395 -0.13367997 -0.07636902 0.13082057 0.048444547 0.0635656 -0.237982 -0.1373387
-0.22877316 0.56233597 0.058410153 -0.5818964 0.07794885 -0.17628634 -0.083959 0.0878385
-0.6965445 0.5175509 0.1480504 -0.19458476 -0.6225874 0.51493233 -0.08706394 -0.37458146
-0.13748984 0.35290822 0.29249316 -0.6596893 -0.042319406 -0.50615466 0.59118694 -0.23386867
-0.06196432 -0.5427527 0.06660503 0.056955293 0.2128959 -0.13253225 -0.21127693 -0.037249446
-0.025737548 -0.022118794 -0.23608986 0.332304 0.23444046 -0.2555777 -0.72834533 -0.17998093
0.5290185 0.15020603 -0.45803156 0.24359769 0.049821936 -0.65503824 -0.38407987 -0.2500947
-0.16194777 0.7369844 -0.24541672 -0.44625884 -0.3932167 0.053348262 -0.05474303 -0.43954223
0.39483422 -0.31949762 0.0939103 0.15678166 0.35741833 -0.30230853 -0.24133897 -0.37686422
0.14468575 0.23344001 -0.15699002 0.01495294 0.19876894 -0.53934985 0.33120486 -0.13220102
0.27467024 0.1910477 0.52239233 0.27671418 0.31537214 -0.96745837 -0.2966708 -0.5920142
0.4648151 0.030180065 -0.28672126 -0.30486843 0.48543844 -0.69281846 -0.20602457 -0.5025668

onnx::Conv_676 f4 [16]
00000000: f22a e33e 5244 45bf 6a79 153f 66cc 24be
00000010: c4ca f43e 2534 a33e d6a0 86be 84e2 04bf
00000020: ef1d 4e3f 5ab5 203f ac4e 623f 2726 dd3e
00000030: 173f e73e 561e 843e d1c8 973e a19f 473f
0.44368702 -0.77057374 0.5838839 -0.16093597 0.47810948 0.3187572 -0.26294583 -0.51908135
0.80514425 0.6277672 0.88401294 0.4319317 0.4516532 0.25804394 0.29645398 0.7797795

onnx::Conv_678 f4 [16, 16, 1, 1]
00000000: 95ce 34bf 328a 2b3d 8352 643b 7daf 11bf
00000010: 0f1d 55be f51a e3bd f847 1dbf f068 9b3e
00000020: 790d ddbe 9ebc fa3e 6fc1 4cbf d9b9 903f
00000030: 14e4 39bf 3841 643f 2b71 da3e be99 04be
00000040: f2e2 b6bf f3b8 08bf be7b e2bf 2462 863f
00000050: 8c03 0dbe 7830 103c 3bb8 8bbe e219 913e
00000060: af8e 88bc ca0d 56bf 0810 c0bf 8fc4 713e
00000070: aa79 a53e 2cb0 833e 4c65 eabc 652d 393f
00000080: d5bf 0b3c 56ee a6be e1c3 df3d 70b0 e2bd
00000090: 9650 cf3e 3502 2f3f b1fc 2c3f 195b d9be
000000a0: 043d f53e 7048 103e 40f8 3b3f ed60 88bd
000000b0: 0d76 1c3f 90ed 6fbf c6ce e3be cc1c 72be
000000c0: 6ba2 d33e 8c28 b6be 684b 83bf 0086 a83e
000000d0: 7c6b afbe 5129 82bf f9d9 81bf 7fec a3be
000000e0: c0e4 083f 46bf 42be e08a 13bf 9144 463f
000000f0: 63a3 06be 4f4f 463f 3445 8abe e022 06bf
00000100: 08f4 a03e 57c0 3ebf d013 10be 3e7a f8be
00000110: ba89 093f c084 833f f09d 093f c20f 7abe
00000120: a439 5f3e 0ee3 af3e 2a83 8b3e e93f a9be
00000130: 6b67 2b3f a230 293f 5c40 193f 6334 393f
00000140: 7f52 ea3e f2b0 503f 0370 4dbf 0236 66bf
00000150: d8a4 c7be 7a63 4ebf d16c 9cbd ef9a 8d3e
00000160: 2923 02bf 7632 aabe 5163 8cbb 2819 243f
00000170: a27e 673e 296f a03d 27c7 19bf fd4f ffbe
00000180: 74bf e93e 6fd7 12be 4c66 e43e bee4 0a3f
00000190: 8974 403f e601 efbc 350c f1be a1d3 993e
000001a0: e993 233f cca0 373e 9163 64be 2ed3 a1be
000001b0: a8bd 073f a1e5 e13e 2173 f0be 7a32 4cbe
000001c0: e36e 873e 48d3 783e 30ee d1be ae33 04c0
000001d0: 2aa9 403f c4f9 60bf 99f1 c13e b25c d53e
000001e0: 4ad6 ff3e a6cb 99bf 91db 64bf b1d3 693f
000001f0: 1420 dcbf a5e1 94be 5ad8 23bf 4217 babf
00000200: fbe5 4bbf ce93 18be 07ef 883f f075 613e
00000210: 2311 8d3e 7da4 f4bd 60ab 443f c5de 423f
00000220: 2bee c33e cf8c 853f 0f58 3ebe 3c60 a73e
00000230: 4449 bf3e 8afa 003f 2361 6fbe c93d 333f
00000240: d128 443e 603c e03d 6fd6 bdbe 7473 b8bd
00000250: 087a c33f 8a45 b83f 3ee8 3cbf 95ae 95bf
00000260: fd7c aabf e720 fd3e b14b 83bf ec7a 093f
00000270: b505 5b3d f151 27bf f076 9f3e 275a f6be
00000280: e488 34be df5b f63a 7a77 bbbe d24f 2bbe
00000290: d95b 61bf e3bf c73c 01ae 3bbe 169b 3cbf
000002a0: d8c0 e03e b31b 1f3f e8bf 8c3e 8f27 213e
000002b0: 875b 1bbd 1c0b acbe 19ac 9cbe 19fc 11bc
000002c0: daaa b33e 480a 5bbf 0e10 413f 9e97 c03e
000002d0: 1585 f63c b9e6 32bf ab3e 17be 9179 61bd
000002e0: c0a7 abbf 5d03 a1be bba3 b93f 9c31 a5bf
000002f0: 685b 4b3e d291 1fbf 4730 fc3c 2d63 773e
00000300: 6cad 03bf 2184 69be a8f7 b13e d249 7b3e
00000310: ceb8 2e3e 18ce 103f e991 3dbd 49b3 44bf
00000320: 05b2 cabf 1b42 64bf 3b91 083f 95d8 85bd
00000330: ce4b c33d b5e9 633f a1bd 093f e0bb a7bf
00000340: d623 90bd e9c6 783e 127b 2f3f 4add d5bf
00000350: e4e4 3f3e 8d50 7abe 3863 e9bd 3034 30bf
00000360: ab7e 5bbf 11d2 dabf 2699 d1bd 29c5 95be
00000370: d319 123f 861c 14be e320 af3f a146 f7be
00000380: 91a2 1dbf f890 ae3f 8989 debd 2231 ba3f
00000390: b81d d33f 8c2c 513e e5c0 1c3f bb22 0040
000003a0: 07a0 2d3f 621f 613f ce35 633f 609e f2bd
000003b0: 65c4 90bf 971a 3c40 6727 c73e 3dba cf3e
000003c0: d149 a03e 1c1b 11bf 1205 eabc 005d 9d3f
000003d0: 6be3 f53e a3f8 7b3e b99f 2d3f 525d 793e
000003e0: dc09 85be 6136 52bf b961 14bf 1ee4 bfbe
000003f0: d97b dcbe 5e64 0d3f 9a8b 2a3d 4f50 323f
-0.7062772 0.04187984 0.003483922 -0.569084 -0.20811866 -0.11089126 -0.6143794 0.30353498
-0.4317434 0.48972028 -0.79982656 1.1306716 -0.72613645 0.89162016 0.42664465 -0.12949273
-1.4288008 -0.5340721 -1.7694013 1.04987 -0.13770884 0.008800618 -0.27288994 0.2834006
-0.0166696 -0.8361479 -1.5004892 0.23610137 0.32319385 0.25720346 -0.028612755 0.7233489
0.008529623 -0.3260371 0.10926033 -0.11068809 0.4049117 0.6836274 0.67573076 -0.42452314
0.47898114 0.14090133 0.73425674 -0.06659112 0.6111763 -0.93721867 -0.44493693 -0.23643798
0.41334853 -0.3557781 -1.0257387 0.32914734 -0.34261692 -1.0168859 -1.0144645 -0.3201637
0.53474045 -0.19018278 -0.5763378 0.77448374 -0.13148265 0.77464765 -0.27005923 -0.52396965
0.3143618 -0.7451224 -0.14070058 -0.48530763 0.5372578 1.0274887 0.5375662 -0.24420074
0.21799332 0.34352916 0.27248508 -0.33056572 0.6695468 0.6608983 0.5986383 0.7234556
0.45766065 0.8152 -0.8024904 -0.8992616 -0.38992953 -0.8062054 -0.076379426 0.27657267
-0.508349 -0.33241624 -0.0042843004 0.64100885 0.226069 0.07833702 -0.6006951 -0.49865714
0.4565388 -0.14339994 0.44609296 0.5425528 0.7517782 -0.02917571 -0.47079626 0.30044273
0.6389757 0.17932433 -0.22303607 -0.3160643 0.5302377 0.44120505 -0.46962836 -0.1994113
0.26451787 0.24299347 -0.41002035 -2.0656543 0.75258124 -0.8788111 0.37879637 0.41672283
0.49968177 -1.2015274 -0.8939753 0.9133864 -1.719729 -0.29078403 -0.64002 -1.4538348
-0.796478 -0.14900133 1.0697945 0.22017646 0.27552137 -0.11945436 0.76824 0.7612117
0.38267645 1.0433596 -0.18588279 0.32690609 0.37360585 0.5038229 -0.23376898 0.7001615
0.19156195 0.109490156 -0.37077662 -0.09006396 1.5271616 1.4396222 -0.73791873 -1.1693903
-1.3319393 0.49439165 -1.0257474 0.5370319 0.05347224 -0.6535941 0.3114543 -0.48115656
-0.17630345 0.001879569 -0.3661459 -0.16729668 -0.88030773 0.02438349 -0.18328096 -0.7367414
0.43897128 0.6215164 0.27490163 0.15737747 -0.037929084 -0.33602226 -0.3060005 -0.008910202
0.35091287 -0.8556256 0.7541512 0.37615675 0.030092755 -0.69883305 -0.1477 -0.055047575
-1.3410568 -0.31447878 1.4503092 -1.2905765 0.19859087 -0.6233188 0.03078474 0.24158926
-0.51436496 -0.2280431 0.3475926 0.24539879 0.17062685 0.56564474 -0.04628173 -0.7683607
-1.5835577 -0.8916337 0.53346604 -0.0653545 0.09535943 0.89028484 0.53804976 -1.310421
-0.07038085 0.24294628 0.68547165 -1.6708157 0.18739659 -0.2444479 -0.113958776 -0.6882963
-0.85740155 -1.7095357 -0.10234289 -0.29251984 0.57070655 -0.14464006 1.3681911 -0.48296073
-0.6157618 1.3637991 -0.108660765 1.4546244 1.6493444 0.2042715 0.61231834 2.0021198
0.6782231 0.8793851 0.88753974 -0.11846614 -1.1309935 2.939123 0.3889725 0.40571776
0.31306317 -0.5668199 -0.02856687 1.2294006 0.4802507 0.24606566 0.6782184 0.24352005
-0.25984085 -0.82114226 -0.5796161 -0.37478727 -0.43063238 0.55231273 0.04163704 0.6965379

onnx::Conv_679 f4 [16]
00000000: c067 173d 5e00 943f ae80 a2be a073 ef3d
00000010: b2e4 5bbf ec88 e53e 97ce 5cbf 0883 4b3f
00000020: 2aa3 a8bf 660e 8ebd 64b9 503f 84b2 023f
00000030: aef0 3c3f 51e1 093f b6a8 febf 0a9e 42be
0.036964178 1.1562612 -0.317388 0.116919756 -0.85895836 0.44831026 -0.8625273 0.7949681
-1.3174794 -0.0693634 0.81532884 0.51053643 0.7380475 0.5385943 -1.9895236 -0.190056

onnx::Conv_681 f4 [72, 16, 1, 1]
00000000: eecf 3a3d 8a62 213e c39d b03d 1f5a 843d
00000010: 8d8b a63d 79b4 653e bcb2 55bc 4b96 07be
00000020: 3e1b 02bd 202a 05be a492 0d3d 32db f53b
00000030: 383e c03e 38a9 863e c7a4 5b3d 57a5 71be
00000040: 846e 6f3d 979c ae3e 0433 e0bd 8fc4 aa3d
00000050: a63c cfbd 9200 fdbd d883 febd 50cc 80bd
00000060: fda4 5bbd 655a 393e f6c2 513e af89 c6be
00000070: f6b5 263d e634 44bd 045c a03e 94f3 66bd
00000080: 4be9 eebd b158 0abc 199c c8bc 4b2c f8bd
00000090: dbb5 7ebd 0e77 29be de4c 9f3d b815 203c
000000a0: b171 bfbd 12e7 cc3d 2ef7 52be 76f7 173d
000000b0: 6bd1 ff3d a437 c33e 180d 34be e363 fa3c
000000c0: 5138 8f3d a3bc c33e 71cb 75bb e2a7 9dbd
000000d0: 6f65 c5bb 3b38 9a3d 4226 85bd 6797 3bbe
000000e0: 090a aabe f585 6b3e 4277 88bd 5cd2 c03c
000000f0: 4a86 3d3e 0e09 4b3e fcac aebe 4825 a03e
00000100: e132 cfbd c816 803d aa04 35b9 1bd8 943c
00000110: 7cb7 34be 64c2 89be 9106 193e c08e e7bd
00000120: 0559 dd3d a08d fe3d 09a5 3f3d 5c47 5f3e
00000130: 61b3 5dbc 963e 69be a609 603e 0fba 3d3b
00000140: a746 903d f7a1 33bd f5d9 15be dd0f 3a3d
00000150: 3e5c a6bd aa98 913d 9b36 0dbe ff78 873e
00000160: 9383 9dbe 6a16 693e 6ad9 99bc d41f bebd
00000170: 8ab5 993c 842c 263d 84b1 073d fe2c 1dbd
00000180: 1dcd c63c 6bbb 64bd 33c4 aabe 5e33 86bd
00000190: 6092 5cbe 6bf2 283e dfae ddbd 64b4 223e
000001a0: 8426 29bd 783f 81bd 51f4 a1bd 117a e03d
000001b0: 99a2 dd3d 8ba4 533d b632 083e 735b 0aba
000001c0: 9eb5 7e3d 1673 8a3c d310 403e 08e0 0a3e
000001d0: 755f 32be 8d0d b53e 7b09 bfbd 24cb 413e
000001e0: 62e1 093e 78c0 923d 9e87 a2bb c8da 39be
000001f0: 3512 0bbf 2178 e33c e0ab abbe bf7b 18be
00000200: 3334 9dbc 94a6 b7bc 243c 8e3e 7d3f ab3e
00000210: e99c 0abe 4eb8 ac3d 2c25 743a 145b 273e
00000220: 0e82 a0be 07e1 013c c0f2 8f3e 02ce 6abe
00000230: c8e2 76be 5fcb f5bd 4168 9cbe 1016 bcbd
00000240: af20 0f3d ba88 9dbe 415b 393e cc4d 87be
00000250: e4b5 4b3e f555 163e c10f d9bc 1469 a53e
00000260: cd58 143e 7be6 fdbc 45e3 a73b cb34 0abe
00000270: 01a1 b2be feed 133e 4603 a83c 57bd 31be
00000280: d5b9 813e 9a06 e23e abfe 06be a768 d1bd
00000290: 6df8 86be c1ac babd 1e3f 1ebe 633b c23e
000002a0: 18e7 6abd 06a7 bcbd d426 36be e265 63be
000002b0: 39a4 1abe 4d48 9a3e 1d9a 93be 1aea bd3e
000002c0: e4a6 ee3d 7a71 843d 97f9 5b3d 93e6 2d3e
000002d0: e6ec 16bc c173 913d 74c7 bebd 139b 213e
000002e0: fbae 74be c1a7 663d 61f0 bb3d c9e6 f6bd
000002f0: 07c5 26be a72e 543e b6ed 98be c0b1 50be
00000300: 0eab e2bd e0ee 0fbd 1db1 12bd 6aaf 1bbd
00000310: 4286 9dbd 8c24 5abe 80dc 473d 2c04 ffbd
00000320: 25a5 263e f8bd 913b dd46 1ebe 3edb 293e
00000330: b550 1dbd 76c7 1abc 37ec e53c 9242 5e3e
00000340: c0e8 ba3d 5258 243e 0b2f 02be ab24 2e3e
00000350: 2a94 423e ee82 91be 20a3 543d 63ce abbd
00000360: 9762 4abe ffcc 2cbe fc2e a73c 4072 9dbe
00000370: 96b5 bc3c 50af e2bd 3b08 ba3e 9155 d93e
00000380: 654b babd 8dd3 c63c 3842 dd3d beba 88bd
00000390: 1aa1 283e 2f9a b7bd 012a 363e efdb a0be
000003a0: 3ffd 933d f771 7f3d 657f 7e3d 1f47 d33d
000003b0: eaff 183d 9546 a8bd cb48 0ebe ec6f 27bd
000003c0: b8aa 56be 7b63 12be 32fd 05be eb40 6bbe
000003d0: 744a 57be 3989 69bd e866 e3bd 70ca 83be
000003e0: 6349 e5bd 59da 28bd eb81 9b3d ada8 863e
000003f0: 67d7 aa3d b037 b5bd 598d 2ebf 08a0 26be
0.045608453 0.15760246 0.08623841 0.06462502 0.08132086 0.22432126 -0.013043102 -0.13240926
-0.03176426 -0.1300435 0.034563676 0.0075029368 0.3754747 0.2630098 0.05362394 -0.23598228
0.058455005 0.34103844 -0.109472305 0.08338272 -0.1011899 -0.123536244 -0.12427491 -0.062889695
-0.053624142 0.18100889 0.20484528 -0.3877692 0.040700875 -0.04790201 0.31320202 -0.056384638
-0.11665591 -0.008443997 -0.024488496 -0.12117823 -0.06218515 -0.16549322 0.07778333 0.009770803
-0.09347857 0.10005011 -0.20602104 0.03710123 0.12491115 0.38128388 -0.1758312 0.030565208
0.069931634 0.38229856 -0.0037505294 -0.07698037 -0.0060240547 0.07530256 -0.06501438 -0.18319474
-0.3321078 0.2300032 -0.066633716 0.023537807 0.18508258 0.19827673 -0.34116352 0.31278443
-0.10117126 0.06254345 -0.00017263243 0.018169453 -0.17648119 -0.2690612 0.14943911 -0.11306524
0.10807995 0.124293566 0.04678825 0.21804565 -0.013531537 -0.22777781 0.2187868 0.002895001
0.07044726 -0.043855634 -0.14633925 0.045425285 -0.081230626 0.071091965 -0.13790362 0.264595
-0.30764446 0.22762457 -0.018780429 -0.092834145 0.018763322 0.040569797 0.033128276 -0.038372986
0.024267728 -0.0558428 -0.33352813 -0.06552766 -0.21540213 0.16498725 -0.1082437 0.15889126
-0.041296497 -0.06310934 -0.07907928 0.10960782 0.10822029 0.051670592 0.13300595 -0.0005277909
0.062184922 0.01690058 0.18756418 0.13562024 -0.17419226 0.353619 -0.0932798 0.18925148
0.13464883 0.07165617 -0.0049600145 -0.18149865 -0.54324657 0.027767243 -0.33529568 -0.14890955
-0.01918993 -0.022418298 0.2778026 0.33446875 -0.13536419 0.08433591 0.00093134004 0.16343337
-0.31349224 0.007927186 0.2811489 -0.22930148 -0.24109948 -0.120016806 -0.3054829 -0.091838956
0.03494328 -0.30768377 0.18101217 -0.26426542 0.19893605 0.14681228 -0.02649677 0.3230673
0.14487 -0.03099369 0.005123528 -0.13496701 -0.3488846 0.14446256 0.020509373 -0.17357384
0.2533709 0.44145662 -0.13183086 -0.10225039 -0.2636141 -0.091149814 -0.15453765 0.37935933
-0.057349294 -0.09211545 -0.17788249 -0.22206834 -0.15101708 0.30133286 -0.28828517 0.37092668
0.116529256 0.064669564 0.053704824 0.16982488 -0.009211754 0.071021564 -0.093153864 0.15781812
-0.23894875 0.056312326 0.09176708 -0.120557375 -0.16286097 0.20720921 -0.2986886 -0.20380306
-0.11067782 -0.03513992 -0.03581344 -0.038009085 -0.07691623 -0.21303004 0.04879427 -0.124519676
0.16273935 0.004447695 -0.1545672 0.1658754 -0.038407046 -0.009446969 0.028066738 0.21705082
0.09126425 0.16049317 -0.12713258 0.17006175 0.19001833 -0.28420204 0.05191338 -0.083889745
-0.19764172 -0.16875075 0.020408146 -0.30751228 0.023035806 -0.110685945 0.36334404 0.42448094
-0.090964116 0.024270797 0.10803646 -0.06676243 0.16467705 -0.08964955 0.1778946 -0.31417796
0.07226037 0.062364545 0.06213321 0.103163 0.037353434 -0.082165875 -0.13894956 -0.04087822
-0.20963562 -0.14295761 -0.13084868 -0.22973983 -0.21024495 -0.05701563 -0.11103612 -0.25740385
-0.11195638 -0.041223858 0.07593139 0.26300564 0.08341866 -0.08848512 -0.6818443 -0.16271985

onnx::Conv_682 f4 [72]
00000000: e616 d7be 0e11 f3bd 9874 b53e 33ef 2f3e
00000010: 0cee 10bf 364a 833e b539 ab3d 16fc 9d3e
00000020: 496c d73e fa37 e53e 6a50 233e 6c1f b73e
00000030: 3645 93be 8058 5cbd 1c37 083e 1d4e 963d
00000040: 0016 a2be 88c0 ea3e ae27 88be 48b6 b8be
00000050: bda3 d0bd 333d fcbe a673 953e edb0 cabe
00000060: 6f81 ab3e 4368 833e 2e86 283e 93e2 94be
00000070: 12da 04bd 3997 5ebe 8128 38be c0ea cabe
00000080: 82f2 293e 90ca 843e 243e 7e3d 43ab 52be
00000090: a89a 89bc 1ae1 883e 7cc9 11bd 304f 2b3c
000000a0: 545e 20be c3ae 533d 8296 c9be ee06 2b3e
000000b0: f60a d53e e0e6 34bd 9a78 2b3f 273a bc3e
000000c0: 2e3d d9be ff16 003f 80e7 bfbe 9460 093f
000000d0: b1d4 043e 1917 853e 0147 b13d 8c5e 0a3d
000000e0: ed6e 98bd 0d9f 0a3f 6c8f 393d f3d0 a43e
000000f0: 8c60 003d fa87 b6bd 1a3b 05be fd6c 1ebe
00000100: 097b 1cbe 39c7 dfbd 064e 11bf 073a 69be
00000110: 8120 213f 4d48 2a3e 8186 883e de0c ba3d
-0.42009658 -0.11868487 0.35440516 0.17181091 -0.5661323 0.25642556 0.08360616 0.3085639
0.42074803 0.4476927 0.15948644 0.3576616 -0.2876374 -0.053795338 0.13302273 0.07339118
-0.3165741 0.45850015 -0.26592773 -0.3607657 -0.101874806 -0.4926544 0.29189795 -0.3958811
0.33497187 0.25665483 0.16457435 -0.29079112 -0.03243453 -0.21737374 -0.17984201 -0.39632225
0.16596416 0.25935793 0.06207098 -0.20573144 -0.016797379 0.2673424 -0.03559254 0.0104558915
-0.15660983 0.051680338 -0.3937264 0.16701862 0.41609925 -0.044165492 0.669809 0.36763117
-0.4242949 0.5003509 -0.37481308 0.5366299 0.1297176 0.25994185 0.08656121 0.033781573
-0.074430324 0.5414894 0.045302793 0.32190666 0.031342074 -0.08912654 -0.13010827 -0.15471263
-0.15281309 -0.109266706 -0.5675968 -0.22776042 0.6294022 0.16629143 0.26665118 0.090844855

onnx::Conv_684 f4 [72, 1, 3, 3]
00000000: 2ee2 343f 8cb8 863e 2fc0 83bf 2ce2 54bf
00000010: 32b6 65bf 6419 b53f ad03 2cbf 7733 73bf
00000020: 332e 1240 aa40 acbe 1b78 d83e dcbd 05bf
00000030: 00e9 39be f377 1c3d 3ce4 8dbf ac7e a73d
00000040: 1aa5 d6bd aec0 43bf b59f d63f 2331 c4bf
00000050: c30b a5bf 20ae 11bf 11b9 d33f 31b1 b1bd
00000060: 0cfd dfbf b150 323f b5c1 a43f ec35 1fbf
00000070: 5a75 90bf a7c1 013f f179 e43e 94a7 04be
00000080: 21c2 e1be 3b42 8f3f 3285 db3e 8d37 c8be
00000090: 138d c43e 1b80 2e3e 8127 66bf 4504 05bf
000000a0: 302f 1ebd 452f ad3e a6a5 203f 06ef e13f
000000b0: c72a 6e3f b340 e93f aacf f0bf 588a 853e
000000c0: fbbb 0740 7f2e 6ac0 fa7c 11be caea 2140
000000d0: 0ad3 2bc0 dcd8 db3f 08fe 2f3e 7f59 633f
000000e0: 48e5 243f c73b a4be c2aa e5bd 50fe 0a3f
000000f0: e0cd 093d 4764 b93e 189e 3cbe f3f8 a1bf
00000100: ed65 bdbf fede 2a3f e4db 0a3f 703a 3d3f
00000110: f6f2 ad3e 28fb fe3e 18e4 5bbf 659c 97bf
00000120: ac5d a4bd 99fe b23d 3321 0c3f fd2d b23e
00000130: 3894 fc3e b30b 2b3f f2d0 f7be 6f7d 903d
00000140: d2b1 adbe 19c4 0cbf 7457 1240 3a9c 50bf
00000150: f2c8 a43f 9161 0abf befa c33e f848 07bf
00000160: dea1 c1bf 6b70 b73e dfac 5a3d 477a 54be
00000170: ffab fdbc cb68 1a3f f33f aabd f9a4 c8be
00000180: 49bf 21bf 5593 cbbe 0e76 2abf 4ff6 c53e
00000190: 3c42 0c40 50e7 b9bf 1928 bf3d 5e5f 12c0
000001a0: 1556 8cbf cdbb b03f 7b8f d9bf 36df 2340
000001b0: 52e2 a43f 7733 d9bf e093 3cbe b94f c2bf
000001c0: 09a6 f2be 83d4 0440 3f7f bcbf 9380 ae3f
000001d0: 184b 6d3e 6758 373f b16b 95bf 07b7 95be
000001e0: 81a0 8abf c1da 893f 8176 043f 1db5 80bf
000001f0: 3910 c33f 0d19 bcbd 3001 a8be 1c23 4abd
00000200: 34f2 a1bf e4e3 c93f fabc df3e 7fad d4be
00000210: f678 2ebf 0157 913d b467 cd3e 05e5 8dbe
00000220: 379d b1be b082 e8bd a3b9 acbe 41ee 57be
00000230: f1ad 6ebd ec17 b1be c73b b73e c32d babe
00000240: 3275 91bf 5c06 093c 47e3 143f 158f 873f
00000250: 58f1 cd3f 7058 bc3d a0de 923f 33ca 6dbf
00000260: 6d85 fdbf c3cd ad3f b161 09bf 93e4 e3bf
00000270: cf36 04bf ee2e 22bf ff92 873f 8e96 cf3f
00000280: 46f4 bcbf 6dd7 d1bf da7b 633e 42f0 583e
00000290: c969 ad3f ee43 59bf ba2a 203e cdad aabe
000002a0: 78de a63e 9f3d 2dbe b8fc 91bf bb4c 763f
000002b0: 2572 863e a369 febe fec9 da3e d58e 87bf
000002c0: 33fd a4bf ddd0 473f 16c2 4f3f 05e5 babe
000002d0: 59cc 103f 0a3d c63e 2fc7 03bd 949f 23bc
000002e0: 2592 b33e d747 333e 3aa8 a63e e186 e33d
000002f0: d027 9b3e c932 343e eb2d 5c3f c294 9dbf
00000300: a53c aebf bebd 3940 deb4 bcbf f2ab 7cbf
00000310: cf1f de3f 652d f4be 7c86 42be 8b09 bbbe
00000320: ddab b23e b563 b8be 25df f9be 8638 b4bf
00000330: 5751 6c3d 943f fa3f 7144 6b3f 1062 0bbf
00000340: f577 d23e 443d 95bf dd4b a13e 9d99 4f3f
00000350: ea1d ac3e 200d 293e cd49 163f e1ac d5be
00000360: 1c2b abbf b47d 9e3e a854 c53f f298 65bf
00000370: a386 6d3f 9520 bf3f 3f9c 22bf e240 76bf
00000380: 72d8 713c a16e 86be 80f7 733d 83dd a4bf
00000390: e017 0540 4043 fc3f d5ce 9cbf 0ff5 193f
000003a0: fa9c 6cbf e701 efbf 5836 c13f 1773 8d3f
000003b0: add3 a9bf 9339 743f bbc7 45bf d1d5 cfbf
000003c0: 3eb8 c53f ed1c cc3e d3ca cbbf 63b2 f6bf
000003d0: 401b a03f 7adf aebe b8f3 f1be 5e26 ec3c
000003e0: 156d fe3e e289 f9bf 3daa 8940 3d27 88bf
000003f0: b3c3 c53f 96e7 423f 3384 c0be d1fa a6bf
0.7065762 0.26312673 -1.0293025 -0.8315761 -0.89731133 1.4148374 -0.6719311 -0.95000404
2.2840698 -0.33643085 0.42279133 -0.5224283 -0.18155289 0.03820033 -1.1085277 0.081784576
-0.104807094 -0.7646588 1.6767489 -1.5327495 -1.2894214 -0.5690632 1.6540853 -0.08676375
-1.7499099 0.69654375 1.2871615 -0.62191653 -1.1285813 0.50686115 0.44624284 -0.12954551
-0.4409342 1.1192087 0.42875057 -0.39104882 0.3838888 0.17041056 -0.8990403 -0.5195964
-0.03861922 0.33825126 0.6275276 1.7651069 0.93034023 1.822287 -1.8813374 0.2608211
2.1208484 -3.659088 -0.14207831 2.5299554 -2.6847558 1.7175555 0.17186749 0.88808435
0.64412355 -0.32076856 -0.1121421 0.542943 0.033643603 0.36209318 -0.18419683 -1.2654098
-1.479673 0.6674651 0.54241776 0.73917294 0.33974427 0.49800992 -0.8589492 -1.1844603
-0.08025679 0.08739967 0.5473816 0.3480071 0.49331832 0.66814727 -0.484016 0.070551746
-0.3392473 -0.5498672 2.2865877 -0.8148838 1.2873824 -0.54055125 0.3827724 -0.52845716
-1.5127523 0.35827956 0.05338752 -0.2074977 -0.030965803 0.6031615 -0.083129786 -0.39188364
-0.63182503 -0.39760843 -0.6658639 0.3866448 2.1915426 -1.4523716 0.0933382 -2.2870708
-1.096377 1.3807312 -1.6996912 2.5604987 1.2881567 -1.6968831 -0.18415785 -1.518058
-0.473923 2.0754707 -1.4726332 1.3632988 0.23173177 0.71619266 -1.167349 -0.292412
-1.0830232 1.0769883 0.5174332 -1.0055271 1.5239326 -0.091844656 -0.32813406 -0.04934989
-1.265204 1.5772672 0.43698865 -0.41538617 -0.6815332 0.07096673 0.40118182 -0.2771379
-0.34690258 -0.11353052 -0.3373538 -0.2108698 -0.058271352 -0.34588563 0.35787794 -0.36363038
-1.136389 0.008363333 0.581593 1.059054 1.6089277 0.091965556 1.147419 -0.92886657
-1.9806343 1.3578418 -0.5366469 -1.780413 -0.5164613 -0.6335286 1.0591735 1.6217821
-1.4762046 -1.6393868 0.22215214 0.21185401 1.3547908 -0.8486928 0.15641299 -0.33335724
0.32591605 -0.16918038 -1.1405249 0.9621083 0.2625896 -0.4968997 0.42732233 -1.0590464
-1.288977 0.78053075 0.81155527 -0.36502853 0.5656181 0.38718444 -0.03217238 -0.009986777
0.35072437 0.17507873 0.32550222 0.111097105 0.30303812 0.17597498 0.86007565 -1.2311022
-1.3612257 2.902206 -1.4742696 -0.9869987 1.7353457 -0.47690883 -0.18996614 -0.36530718
0.34896746 -0.3601357 -0.48803058 -1.407975 0.05769476 1.9550653 0.9190131 -0.54446507
0.41107145 -1.1659322 0.31503192 0.8109377 0.33616573 0.16508913 0.5870636 -0.4173346
-1.3372531 0.3095528 1.541646 -0.896865 0.92783564 1.4931818 -0.6351966 -0.96192753
0.014761077 -0.26256278 0.059562206 -1.28801 2.0795822 1.9708023 -1.225062 0.60139555
-0.9242703 -1.8672456 1.5094709 1.1050748 -1.3267723 0.9540035 -0.7725789 -1.6237127
1.5446851 0.3986582 -1.5921272 -1.9273189 1.2508316 -0.34154874 -0.47256255 0.028826889
0.49692598 -1.9495203 4.302031 -1.0636975 1.5450348 0.7613462 -0.3760086 -1.3045293

onnx::Conv_685 f4 [72]
00000000: fad5 04be b350 9c3f f6dc 7bbe 872e ff3c
00000010: ee93 15bf 8a73 9cbe a227 7cbf 5aea d13e
00000020: fa6c 3ebf 148b 49be 90ca 1b3f 83a8 00bf
00000030: ac88 35be eafb 86be 8d6b f9bd 32ad 1b3f
00000040: da64 a8be 0917 dd3f ee03 473f 7713 8c3e
00000050: c1c0 99bf 8eec 13bf 7c68 59bf 6ea5 e4bd
00000060: 4677 96be fae2 4a3f 38e7 9dbd d266 4abd
00000070: cc40 153e 7458 b4bd cfe0 903f d5fc 1e3f
00000080: 6c4f 433e fec1 10be d00d 4b3f 081d 533d
00000090: a571 1cbe e773 67be df81 1e3f a46f 77bf
000000a0: 4aaf 1b3e 7c18 ad3e 2524 0bbf b407 1dbf
000000b0: c6f6 e6bd ba42 4fbd a93b 023f 698e 833e
000000c0: 95b6 09bf 74b5 163f 9211 f8bd 179c 8b3f
000000d0: 48dc a73f 3c4a a23e d575 94be a0aa 4a3d
000000e0: 26ca d2be 3caa 1bbe 10b2 39bf 73c6 c33f
000000f0: cc39 8ebd 79c8 dbbe 50df e7be 66db 523f
00000100: a52d 47be 1790 1bbf 9c06 8cbd dd48 823f
00000110: 64bb b73e 0e83 833f e838 193e de23 20bf
-0.1297225 1.2212127 -0.24596009 0.031150116 -0.5842885 -0.305569 -0.98497975 0.4099911
-0.74385035 -0.1968196 0.6085596 -0.5025713 -0.17727917 -0.2636407 -0.12178717 0.6081115
-0.32889444 1.7272655 0.7774037 0.273586 -1.2011949 -0.5778283 -0.84925056 -0.11164366
-0.29387873 0.7925259 -0.07710117 -0.049414463 0.145755 -0.088059336 1.1318606 0.6210454
0.19073266 -0.14136502 0.7931795 0.05154136 -0.15277727 -0.22602807 0.6191692 -0.96654725
0.15203586 0.33807743 -0.5435203 -0.6133988 -0.11277537 -0.050600745 0.50872284 0.25694588
-0.53794223 0.58870625 -0.12112726 1.090701 1.31141 0.3169726 -0.2899615 0.049479127
-0.41169852 -0.15201658 -0.72537327 1.5294937 -0.06944618 -0.42926386 -0.4528756 0.82366025
-0.19451006 -0.6076674 -0.06837198 1.0178486 0.35885155 1.027437 0.14963114 -0.6255473
